diff --git a/CMakeLists.txt b/CMakeLists.txt
index 7ae68d3..bc827b3 100644
--- a/CMakeLists.txt
+++ b/CMakeLists.txt
@@ -23,7 +23,7 @@ add_subdirectory(test)
 add_subdirectory(tools/triton-shared-opt)
 
 if (TRITON_SHARED_BUILD_CPU_BACKEND)
-    add_triton_plugin(TritonShared ${CMAKE_CURRENT_SOURCE_DIR}/triton_shared.cc LINK_LIBS TritonSharedAnalysis TritonToLinalg TritonTilingExtIR)
+    add_triton_plugin(TritonShared ${CMAKE_CURRENT_SOURCE_DIR}/triton_shared.cc LINK_LIBS TritonSharedAnalysis TritonTilingExtIR)
     target_link_libraries(TritonShared PRIVATE Python3::Module pybind11::headers)
 endif()
 
diff --git a/README.md b/README.md
index 8d40553..9802ee7 100644
--- a/README.md
+++ b/README.md
@@ -95,7 +95,7 @@ As part of the conversion process, there are three important analyses:
 
 ### Conversion strategy
 
-We introduce the `TritonToLinalg` pass that converts the `triton` dialect to the `linalg` dialect on *tensors*. This means the resulting IR is fully compatible with `linalg` tiling and fusion transformation passes. As mentioned in the `Pointer analysis`'s description, we do however have to deal with memref instructions at the load and store boundaries and have to convert them to tensors using `bufferization.to_tensor`. Here's a simple example of what the IR looks like:
+We introduce the `TritonToLinalgExperimental` pass that converts the `triton` dialect to the `linalg` dialect on *tensors*. This means the resulting IR is fully compatible with `linalg` tiling and fusion transformation passes. As mentioned in the `Pointer analysis`'s description, we do however have to deal with memref instructions at the load and store boundaries and have to convert them to tensors using `bufferization.to_tensor`. Here's a simple example of what the IR looks like:
 
 ```mlir
 tt.func @kernel(%afloat : !tt.ptr<bf16>, %res : !tt.ptr<bf16>) {
diff --git a/backend/compiler.py b/backend/compiler.py
index 9efdb48..ee941bb 100644
--- a/backend/compiler.py
+++ b/backend/compiler.py
@@ -64,6 +64,7 @@ def _ttir_to_ttsharedir(mod):
             subprocess_args.insert(2, "--add-llvm-debug-info")
 
         subprocess.check_call(subprocess_args)
+        _dump_ir_if_needed([dst_path])
         return Path(dst_path).read_text()
 
 
@@ -113,6 +114,7 @@ def _ttsharedir_to_llir(ttsharedir: str):
             "--mlir-print-debuginfo",
             "-o",
             llmlir_path])
+        _dump_ir_if_needed([llmlir_path])
 
         # LLVM-MLIR to LLVM-IR
         mlir_translate_path = _get_llvm_bin_path("mlir-translate")
@@ -120,7 +122,7 @@ def _ttsharedir_to_llir(ttsharedir: str):
             "--mlir-to-llvmir",
             "-o",
             llir_path])
-        _dump_ir_if_needed([ttshared_path, llmlir_path, llir_path])
+        _dump_ir_if_needed([llir_path])
         return Path(llir_path).read_text()
 
 
@@ -151,7 +153,7 @@ def _llir_to_bin(llir: str, metadata):
             sanitizer_attributes_pass_path = str(next(Path(top_level_triton_path).rglob("libSanitizerAttributes.so"), None))
 
             if not sanitizer_attributes_pass_path:
-                raise Exception(f"libSanitizerAttributes.so does not exist.")
+                raise Exception("libSanitizerAttributes.so does not exist.")
 
             subprocess.check_call([opt_path, "-load-pass-plugin", sanitizer_attributes_pass_path, 
                 "-passes=sanitizer-attributes", f"-sanitizer-type={sanitizer_type}", "-S", src_path, 
@@ -194,6 +196,7 @@ class CPUOptions:
     allow_fp8e4nv: bool = False
     allowed_dot_input_precisions: Tuple[str] = ("ieee", )
     sanitize_overflow: bool = True
+    instrumentation_mode: str = ""
 
     def __post_init__(self):
         pass
@@ -256,7 +259,7 @@ class CPUBackend(BaseBackend):
         passes.common.add_symbol_dce(pm)
         passes.ttir.add_loop_unroll(pm)
         passes.common.add_cse(pm)
-        pm.run(mod)
+        pm.run(mod, 'make_ttir')
         return mod
 
     def add_stages(self, stages, options, language):
diff --git a/backend/driver.py b/backend/driver.py
index dcfe9b7..de45f70 100644
--- a/backend/driver.py
+++ b/backend/driver.py
@@ -1,10 +1,12 @@
 import hashlib
 import tempfile
-import sysconfig
 
-import os, subprocess, tempfile, platform
+import os
+import subprocess
+import platform
 import importlib.util
 import sys
+import time
 
 from pathlib import Path
 
@@ -63,7 +65,18 @@ def _ty_to_cpp(ty):
         "fp64": "double",
     }[ty]
 
+def _flatten_signature(sig, output):
+    # Flatten tuples
+    if isinstance(sig, tuple):
+        for x in sig:
+            _flatten_signature(x, output)
+    else:
+        output.append(sig)
+
 def _extracted_type(ty):
+    if isinstance(ty, tuple):
+        val = ','.join(map(_extracted_type, ty))
+        return f"[{val}]"
     if ty[0] == '*':
         return "PyObject*"
     if ty == "constexpr":
@@ -71,6 +84,15 @@ def _extracted_type(ty):
     return _ty_to_cpp(ty)
 
 def _format_of(ty):
+    if isinstance(ty, tuple):
+        val = ''.join(map(_format_of, ty))
+        return f"({val})"
+    if ty[0] == '*':
+        return "O"
+    if ty == "constexpr":
+        return "O"
+    if ty.startswith("tensordesc"):
+        return "O"
     return {
       "PyObject*": "O",
       "constexpr": "O",
@@ -85,15 +107,20 @@ def _format_of(ty):
       "uint16_t": "H",
       "uint32_t": "I",
       "uint64_t": "K",
-    }[ty]
+    }[_ty_to_cpp(ty)]
 
 def _generate_launcher(constants, signature, kernel_name):
-    arg_decls = ', '.join(f"{_ty_to_cpp(ty)} arg{i}" for i, ty in signature.items())
-    args_format = ''.join([_format_of(_extracted_type(ty)) for ty in signature.values()])
+    args_format = ''.join([_format_of(ty) for ty in signature.values()])
     format = "iiiOOOO" + args_format
+
+    flat_signature = []
+    for sig in signature.values():
+        _flatten_signature(sig, flat_signature)
+    signature = {i: s for i, s in enumerate(flat_signature)}
+    arg_decls = ', '.join(f"{_ty_to_cpp(ty)} arg{i}" for i, ty in signature.items())
     args_list = ', ' + ', '.join(f"&_arg{i}" for i, ty in signature.items()) if len(signature) > 0 else ''
 
-    kernel_arg_decls = ', '.join(_ty_to_cpp(ty) if ty[0] != "*" else f"int64_t, void*" for i, ty in signature.items() if ty != "constexpr")
+    kernel_arg_decls = ', '.join(_ty_to_cpp(ty) if ty[0] != "*" else "int64_t, void*" for i, ty in signature.items() if ty != "constexpr")
     kernel_arg_decls += ', ' if kernel_arg_decls else ''
 
     kernel_parameters = ', '.join(f"static_cast<{_ty_to_cpp(ty)}>(arg{i})" if ty[0] != "*" else f"0, &ptr_arg{i}" for i, ty in signature.items() if ty != "constexpr")
@@ -327,7 +354,7 @@ def compile_module(launcher_src, kernel_placeholder_name):
                           libomp_path = next(Path(Path(_get_llvm_bin_path("")).parent).rglob("libomp.so"), None)
 
                           if not libomp_path:
-                              raise Exception(f"libomp.so does not exist.")
+                              raise Exception("libomp.so does not exist.")
 
                           libomp_path = str(libomp_path.parent)
 
@@ -364,7 +391,8 @@ class CPULauncher(object):
         kernel_placeholder_name = "KERNEL_NAME_PLACEHOLDER"
 
         constants = src.constants if hasattr(src, "constants") else dict()
-        cst_key = lambda i: src.fn.arg_names.index(i) if isinstance(i, str) else i
+        def cst_key(i):
+            return src.fn.arg_names.index(i) if isinstance(i, str) else i
         constants = {cst_key(key): value for key, value in constants.items()}
         signature = {cst_key(key): value for key, value in src.signature.items()}
         launcher_src = _generate_launcher(constants, signature, kernel_placeholder_name)
@@ -431,9 +459,56 @@ class CPUDriver(DriverBase):
     def is_active():
         return False
 
+    def do_bench(self, fn, warmup=25, rep=100, grad_to_none=None, quantiles=None, return_mode="mean"):
+        assert return_mode in ["min", "max", "mean", "median", "all"]
+        fn()
+
+        # cache = runtime.driver.active.get_empty_cache_for_benchmark()
+
+        # Estimate the runtime of the function
+        start_event = time.perf_counter()
+        for _ in range(5):
+            # runtime.driver.active.clear_cache(cache)
+            fn()
+        end_event = time.perf_counter()
+        estimate_ms = int((end_event - start_event)*1000 / 5)
+      
+        from triton import knobs
+        verbose = knobs.autotuning.print
+        if verbose:
+            print("CPU estimate ms: ", estimate_ms)
+
+        # compute number of warmup and repeat
+        n_warmup = max(1, int(warmup / estimate_ms))
+        n_repeat = max(5, int(rep / estimate_ms))
+        start_event = [0 for i in range(n_repeat)]
+        end_event = [0 for i in range(n_repeat)]
+        # Warm-up
+        for _ in range(n_warmup):
+            fn()
+        # Benchmark
+        for i in range(n_repeat):
+            # we don't want `fn` to accumulate gradient values
+            # if it contains a backward pass. So we clear the
+            # provided gradients
+            if grad_to_none is not None:
+                for x in grad_to_none:
+                    x.grad = None
+            # we clear the L2 cache before each run
+            # runtime.driver.active.clear_cache(cache)
+            # record time of `fn`
+            start_event[i] = time.perf_counter()
+            fn()
+            end_event[i] = time.perf_counter()
+        times = [(e-s)*1000 for s, e in zip(start_event, end_event)]
+        if verbose: 
+            print("KERNEL TIMES: ", ", ".join(str(t) for t in times))
+
+        from triton.testing import _summarize_statistics
+        return _summarize_statistics(times, quantiles, return_mode)
+
     def get_benchmarker(self):
-        from triton.testing import do_bench
-        return do_bench
+        return self.do_bench
 
     def get_device_capability(self):
         return ("cpu", 0)
diff --git a/include/triton-shared/Conversion/CMakeLists.txt b/include/triton-shared/Conversion/CMakeLists.txt
index a4a0394..f8e180a 100644
--- a/include/triton-shared/Conversion/CMakeLists.txt
+++ b/include/triton-shared/Conversion/CMakeLists.txt
@@ -1,4 +1,3 @@
-add_subdirectory(TritonToLinalg)
 add_subdirectory(TritonToLinalgExperimental)
 add_subdirectory(TritonToStructured)
 add_subdirectory(TritonArithToLinalg)
diff --git a/include/triton-shared/Conversion/TritonArithToLinalg/ConversionPatterns.hpp b/include/triton-shared/Conversion/TritonArithToLinalg/ConversionPatterns.hpp
index 1d9244d..c509be3 100644
--- a/include/triton-shared/Conversion/TritonArithToLinalg/ConversionPatterns.hpp
+++ b/include/triton-shared/Conversion/TritonArithToLinalg/ConversionPatterns.hpp
@@ -59,14 +59,14 @@ static Value getScalarValue(Value operand, Location loc,
                   if (auto shapedType = dyn_cast<ShapedType>(resType)) {
                     resType = shapedType.getElementType();
                   }
-                  return rewriter.create<arith::SIToFPOp>(loc, resType, src);
+                  return arith::SIToFPOp::create(rewriter, loc, resType, src);
                 })
                 .Case<arith::TruncFOp>([&](Operation *op) {
                   auto resType = op->getResults()[0].getType();
                   if (auto shapedType = dyn_cast<ShapedType>(resType)) {
                     resType = shapedType.getElementType();
                   }
-                  return rewriter.create<arith::TruncFOp>(loc, resType, src);
+                  return arith::TruncFOp::create(rewriter, loc, resType, src);
                 })
                 .Default([](Operation *op) {
                   llvm_unreachable("unsupported op in generating ");
@@ -134,11 +134,11 @@ static Value getTransposedValue(Value source, const Location loc,
     }
   }
 
-  Value transposeInit = rewriter.create<tensor::EmptyOp>(
-      loc, transposedShape, sourceType.getElementType());
+  Value transposeInit = tensor::EmptyOp::create(rewriter, loc, transposedShape,
+                                                sourceType.getElementType());
 
   Value transpose =
-      rewriter.create<linalg::TransposeOp>(loc, source, transposeInit, perm)
+      linalg::TransposeOp::create(rewriter, loc, source, transposeInit, perm)
           .getResults()[0];
 
   return transpose;
@@ -191,8 +191,8 @@ struct MakeTensorPtrConverter
                              Location loc) const {
     for (auto opnd : ops) {
       if (isa<IntegerType>(opnd.getType())) {
-        auto castOp = rewriter.create<arith::IndexCastOp>(
-            loc, rewriter.getIndexType(), opnd);
+        auto castOp = arith::IndexCastOp::create(rewriter, loc,
+                                                 rewriter.getIndexType(), opnd);
         vec.push_back(castOp.getResult());
       } else {
         assert(isa<IndexType>(opnd.getType()));
@@ -224,8 +224,8 @@ struct MakeTensorPtrConverter
     SmallVector<Value> newOffsets;
     for (auto [offset, stride] :
          llvm::zip(pointerState.offsets, pointerState.strides)) {
-      auto mulOp = rewriter.create<arith::MulIOp>(loc, cast<Value>(offset),
-                                                  cast<Value>(stride));
+      auto mulOp = arith::MulIOp::create(rewriter, loc, cast<Value>(offset),
+                                         cast<Value>(stride));
       newOffsets.push_back(mulOp.getResult());
     }
 
@@ -278,71 +278,67 @@ private:
                               ConversionPatternRewriter &rewriter) const {
 
     auto zero =
-        rewriter.create<arith::ConstantOp>(loc, rewriter.getIndexAttr(0));
+        arith::ConstantOp::create(rewriter, loc, rewriter.getIndexAttr(0));
 
     auto one =
-        rewriter.create<arith::ConstantOp>(loc, rewriter.getIndexAttr(1));
+        arith::ConstantOp::create(rewriter, loc, rewriter.getIndexAttr(1));
 
-    Value block1Row = rewriter.create<memref::DimOp>(loc, block1, 0);
-    Value block1Col = rewriter.create<memref::DimOp>(loc, block1, 1);
+    Value block1Row = memref::DimOp::create(rewriter, loc, block1, 0);
+    Value block1Col = memref::DimOp::create(rewriter, loc, block1, 1);
 
-    Value block2Row = rewriter.create<memref::DimOp>(loc, block2, 0);
-    Value block2Col = rewriter.create<memref::DimOp>(loc, block2, 1);
+    Value block2Row = memref::DimOp::create(rewriter, loc, block2, 0);
+    Value block2Col = memref::DimOp::create(rewriter, loc, block2, 1);
 
-    auto block1Dst =
-        rewriter.create<memref::SubViewOp>(loc, dst, /* offsets */
-                                           ValueRange{zero, zero},
-                                           /* sizes */
-                                           ValueRange{block1Row, block1Col},
-                                           /* strides */
-                                           ValueRange{one, one});
+    auto block1Dst = memref::SubViewOp::create(rewriter, loc, dst, /* offsets */
+                                               ValueRange{zero, zero},
+                                               /* sizes */
+                                               ValueRange{block1Row, block1Col},
+                                               /* strides */
+                                               ValueRange{one, one});
 
-    auto block2Dst =
-        rewriter.create<memref::SubViewOp>(loc, dst,
-                                           /* offsets */
-                                           ValueRange{zero, block1Col},
-                                           /* sizes */
-                                           ValueRange{block2Row, block2Col},
-                                           /* strides */
-                                           ValueRange{one, one});
+    auto block2Dst = memref::SubViewOp::create(rewriter, loc, dst,
+                                               /* offsets */
+                                               ValueRange{zero, block1Col},
+                                               /* sizes */
+                                               ValueRange{block2Row, block2Col},
+                                               /* strides */
+                                               ValueRange{one, one});
 
-    rewriter.create<memref::CopyOp>(loc, block1, block1Dst);
-    rewriter.create<memref::CopyOp>(loc, block2, block2Dst);
+    memref::CopyOp::create(rewriter, loc, block1, block1Dst);
+    memref::CopyOp::create(rewriter, loc, block2, block2Dst);
   }
 
   void createStackedCopies(Value block1, Value block2, Value dst, Location loc,
                            ConversionPatternRewriter &rewriter) const {
 
     auto zero =
-        rewriter.create<arith::ConstantOp>(loc, rewriter.getIndexAttr(0));
+        arith::ConstantOp::create(rewriter, loc, rewriter.getIndexAttr(0));
     auto one =
-        rewriter.create<arith::ConstantOp>(loc, rewriter.getIndexAttr(1));
+        arith::ConstantOp::create(rewriter, loc, rewriter.getIndexAttr(1));
 
-    Value block1Row = rewriter.create<memref::DimOp>(loc, block1, 0);
-    Value block1Col = rewriter.create<memref::DimOp>(loc, block1, 1);
+    Value block1Row = memref::DimOp::create(rewriter, loc, block1, 0);
+    Value block1Col = memref::DimOp::create(rewriter, loc, block1, 1);
 
-    Value block2Row = rewriter.create<memref::DimOp>(loc, block2, 0);
-    Value block2Col = rewriter.create<memref::DimOp>(loc, block2, 1);
+    Value block2Row = memref::DimOp::create(rewriter, loc, block2, 0);
+    Value block2Col = memref::DimOp::create(rewriter, loc, block2, 1);
 
-    auto block1Dst =
-        rewriter.create<memref::SubViewOp>(loc, dst, /* offsets */
-                                           ValueRange{zero, zero},
-                                           /* sizes */
-                                           ValueRange{block1Row, block1Col},
-                                           /* strides */
-                                           ValueRange{one, one});
+    auto block1Dst = memref::SubViewOp::create(rewriter, loc, dst, /* offsets */
+                                               ValueRange{zero, zero},
+                                               /* sizes */
+                                               ValueRange{block1Row, block1Col},
+                                               /* strides */
+                                               ValueRange{one, one});
 
-    auto block2Dst =
-        rewriter.create<memref::SubViewOp>(loc, dst,
-                                           /* offsets */
-                                           ValueRange{block1Row, zero},
-                                           /* sizes */
-                                           ValueRange{block2Row, block2Col},
-                                           /* strides */
-                                           ValueRange{one, one});
+    auto block2Dst = memref::SubViewOp::create(rewriter, loc, dst,
+                                               /* offsets */
+                                               ValueRange{block1Row, zero},
+                                               /* sizes */
+                                               ValueRange{block2Row, block2Col},
+                                               /* strides */
+                                               ValueRange{one, one});
 
-    rewriter.create<memref::CopyOp>(loc, block1, block1Dst);
-    rewriter.create<memref::CopyOp>(loc, block2, block2Dst);
+    memref::CopyOp::create(rewriter, loc, block1, block1Dst);
+    memref::CopyOp::create(rewriter, loc, block2, block2Dst);
   }
 
 public:
@@ -359,8 +355,8 @@ public:
       auto sMemRef = PtrAnalysis::getScalarMemRef(op.getPtr(), adaptor.getPtr(),
                                                   loc, rewriter);
       auto zeroMap = AffineMap::getConstantMap(0, rewriter.getContext());
-      auto loadOp = rewriter.create<affine::AffineLoadOp>(
-          op.getLoc(), sMemRef, zeroMap, ValueRange{});
+      auto loadOp = affine::AffineLoadOp::create(rewriter, op.getLoc(), sMemRef,
+                                                 zeroMap, ValueRange{});
       rewriter.replaceOp(op, loadOp.getResult());
       return success();
     }
@@ -378,8 +374,8 @@ public:
 
     auto tensorType =
         RankedTensorType::get(type.getShape(), type.getElementType());
-    auto alloc = rewriter.create<memref::AllocOp>(
-        loc, MemRefType::get(type.getShape(), type.getElementType()));
+    auto alloc = memref::AllocOp::create(
+        rewriter, loc, MemRefType::get(type.getShape(), type.getElementType()));
 
     if (!mask) {
       assert(!other && "other value used in non-masked load");
@@ -404,11 +400,12 @@ public:
         }
 
       } else {
-        rewriter.create<memref::CopyOp>(loc, ptr, alloc);
+        memref::CopyOp::create(rewriter, loc, ptr, alloc);
       }
 
-      Value tensor = rewriter.create<bufferization::ToTensorOp>(
-          loc, tensorType, alloc, true /* restrict */, true /* writable */);
+      Value tensor = bufferization::ToTensorOp::create(
+          rewriter, loc, tensorType, alloc, true /* restrict */,
+          true /* writable */);
       rewriter.replaceOp(op, tensor);
 
       return success();
@@ -435,31 +432,33 @@ public:
       // the result
       auto shape = type.getShape();
       auto accBase =
-          rewriter.create<arith::ConstantOp>(loc, rewriter.getBoolAttr(false))
+          arith::ConstantOp::create(rewriter, loc, rewriter.getBoolAttr(false))
               .getResult();
       for (size_t i = 0; i < type.getShape().size(); i++) {
-        auto shapei = rewriter.create<arith::ConstantOp>(
-            loc, rewriter.getIndexAttr(shape[i]));
+        auto shapei = arith::ConstantOp::create(
+            rewriter, loc, rewriter.getIndexAttr(shape[i]));
 
         Value dimi = dyn_cast<Value>(mstate.dims[i]);
         if (!dimi) {
-          dimi = rewriter.create<arith::ConstantOp>(
-              loc, cast<IntegerAttr>(cast<Attribute>(mstate.dims[i])));
+          dimi = arith::ConstantOp::create(
+              rewriter, loc,
+              cast<IntegerAttr>(cast<Attribute>(mstate.dims[i])));
         }
 
-        auto cmpOp = rewriter.create<arith::CmpIOp>(
-            loc, arith::CmpIPredicate::slt, dimi, shapei);
-        accBase = rewriter.create<arith::OrIOp>(loc, accBase, cmpOp.getResult())
-                      .getResult();
+        auto cmpOp = arith::CmpIOp::create(
+            rewriter, loc, arith::CmpIPredicate::slt, dimi, shapei);
+        accBase =
+            arith::OrIOp::create(rewriter, loc, accBase, cmpOp.getResult())
+                .getResult();
       }
 
       // condition the memset on the or-accumulation
       // initialize with padding prior to CopyOp
-      rewriter.create<scf::IfOp>(
-          loc, accBase, [&](OpBuilder &builder, Location loc) {
-            builder.create<linalg::FillOp>(loc, ValueRange{scalarOther},
-                                           ValueRange{alloc});
-            builder.create<scf::YieldOp>(loc);
+      scf::IfOp::create(
+          rewriter, loc, accBase, [&](OpBuilder &builder, Location loc) {
+            linalg::FillOp::create(builder, loc, ValueRange{scalarOther},
+                                   ValueRange{alloc});
+            scf::YieldOp::create(builder, loc);
           });
     }
 
@@ -492,11 +491,12 @@ public:
     } else {
       memref::SubViewOp srcSubview = mstate.getSubview(ptr, loc, rewriter);
       memref::SubViewOp dstSubview = mstate.getSubview(alloc, loc, rewriter);
-      rewriter.create<memref::CopyOp>(loc, srcSubview, dstSubview);
+      memref::CopyOp::create(rewriter, loc, srcSubview, dstSubview);
     }
 
-    Value tensor = rewriter.create<bufferization::ToTensorOp>(
-        loc, tensorType, alloc, true /* restrict */, true /* writable */);
+    Value tensor = bufferization::ToTensorOp::create(rewriter, loc, tensorType,
+                                                     alloc, true /* restrict */,
+                                                     true /* writable */);
     rewriter.replaceOp(op, tensor);
 
     return success();
@@ -519,16 +519,16 @@ struct StoreConverter : public OpConversionPattern<triton::StoreOp> {
       auto sMemRef =
           PtrAnalysis::getScalarMemRef(op.getPtr(), ptr, loc, rewriter);
       auto zeroMap = AffineMap::getConstantMap(0, rewriter.getContext());
-      rewriter.create<affine::AffineStoreOp>(loc, val, sMemRef, zeroMap,
-                                             ValueRange{});
+      affine::AffineStoreOp::create(rewriter, loc, val, sMemRef, zeroMap,
+                                    ValueRange{});
       rewriter.eraseOp(op);
       return success();
     }
 
     // 1. Simple case where no mask is used.
     if (!mask) {
-      auto storeOp = rewriter.create<bufferization::MaterializeInDestinationOp>(
-          loc, val, ptr);
+      auto storeOp = bufferization::MaterializeInDestinationOp::create(
+          rewriter, loc, val, ptr);
       storeOp.setWritable(true);
       rewriter.eraseOp(op);
       return success();
@@ -546,8 +546,8 @@ struct StoreConverter : public OpConversionPattern<triton::StoreOp> {
     auto srcSlice = mstate.getExtractSlice(val, loc, rewriter);
     auto dstSubview = mstate.getSubview(ptr, loc, rewriter);
 
-    auto storeOp = rewriter.create<bufferization::MaterializeInDestinationOp>(
-        loc, srcSlice, dstSubview);
+    auto storeOp = bufferization::MaterializeInDestinationOp::create(
+        rewriter, loc, srcSlice, dstSubview);
     storeOp.setWritable(true);
     rewriter.eraseOp(op);
 
@@ -635,13 +635,12 @@ struct SplatConverter : public OpConversionPattern<triton::SplatOp> {
     auto opType = cast<TensorType>(op.getType());
     auto loc = op.getLoc();
 
-    auto init = rewriter.create<tensor::EmptyOp>(loc, opType.getShape(),
-                                                 opType.getElementType());
+    auto init = tensor::EmptyOp::create(rewriter, loc, opType.getShape(),
+                                        opType.getElementType());
 
     auto filledTensor =
-        rewriter
-            .create<linalg::FillOp>(loc, ValueRange{adaptor.getSrc()},
-                                    ValueRange{init})
+        linalg::FillOp::create(rewriter, loc, ValueRange{adaptor.getSrc()},
+                               ValueRange{init})
             .result();
 
     rewriter.replaceOp(op, filledTensor);
@@ -697,16 +696,16 @@ public:
                         rewriter.getMultiDimIdentityMap(resultRank));
 
     assert(op->getNumResults() == 1 && "code assumes single result!");
-    auto init = rewriter.create<tensor::EmptyOp>(loc, resultType.getShape(),
-                                                 elementType);
+    auto init = tensor::EmptyOp::create(rewriter, loc, resultType.getShape(),
+                                        elementType);
 
-    auto linalgOp = rewriter.create<linalg::GenericOp>(
-        loc, op->getResultTypes(), ValueRange{adaptor.getSrc()},
+    auto linalgOp = linalg::GenericOp::create(
+        rewriter, loc, op->getResultTypes(), ValueRange{adaptor.getSrc()},
         ValueRange{init}, indexingMaps, getNParallelLoopsAttrs(resultRank),
         [&](OpBuilder &nestedBuilder, Location nestedLoc,
             ValueRange blockArgs) {
           Value opResult = blockArgs[0];
-          nestedBuilder.create<linalg::YieldOp>(loc, opResult);
+          linalg::YieldOp::create(nestedBuilder, loc, opResult);
         });
 
     linalgOp->setAttr("broadcastDims",
@@ -740,8 +739,8 @@ struct ExpandDimsConverter : public OpConversionPattern<triton::ExpandDimsOp> {
       reassoc.push_back(g);
     }
 
-    auto expandShapeOp = rewriter.create<tensor::ExpandShapeOp>(
-        op.getLoc(), resType, src, reassoc);
+    auto expandShapeOp = tensor::ExpandShapeOp::create(rewriter, op.getLoc(),
+                                                       resType, src, reassoc);
 
     rewriter.replaceOp(op, expandShapeOp.getResult());
     return success();
@@ -781,22 +780,22 @@ struct MakeRangeConverter : public OpConversionPattern<triton::MakeRangeOp> {
         /* dimCount */ 1, /* symbolCount */ 0,
         SmallVector<AffineExpr>{mlir::getAffineDimExpr(0, context)}, context)};
 
-    auto init = rewriter.create<tensor::EmptyOp>(loc, shape, elementType);
-    auto linalgOp = rewriter.create<linalg::GenericOp>(
-        loc, op->getResultTypes(), /* operands */ ValueRange{},
+    auto init = tensor::EmptyOp::create(rewriter, loc, shape, elementType);
+    auto linalgOp = linalg::GenericOp::create(
+        rewriter, loc, op->getResultTypes(), /* operands */ ValueRange{},
         ValueRange{init}, indexingMaps, getNParallelLoopsAttrs(1),
         [&](OpBuilder &nestedBuilder, Location nestedLoc,
             ValueRange blockArgs) {
-          Value index = nestedBuilder.create<linalg::IndexOp>(loc, 0);
-          Value res = nestedBuilder.create<arith::IndexCastOp>(
-              loc, type.getElementType(), index);
+          Value index = linalg::IndexOp::create(nestedBuilder, loc, 0);
+          Value res = arith::IndexCastOp::create(nestedBuilder, loc,
+                                                 type.getElementType(), index);
           if (op.getStart()) {
-            auto start = rewriter.create<mlir::arith::ConstantIntOp>(
-                op.getLoc(), op.getStart(),
+            auto start = arith::ConstantIntOp::create(
+                rewriter, op.getLoc(), op.getStart(),
                 type.getElementType().getIntOrFloatBitWidth());
-            res = nestedBuilder.create<arith::AddIOp>(loc, res, start);
+            res = arith::AddIOp::create(nestedBuilder, loc, res, start);
           }
-          nestedBuilder.create<linalg::YieldOp>(loc, res);
+          linalg::YieldOp::create(nestedBuilder, loc, res);
         });
 
     rewriter.replaceOp(op, linalgOp->getResults());
@@ -819,8 +818,7 @@ struct AssertConverter : public OpConversionPattern<triton::AssertOp> {
     // TritonOps.td. Tensors will always be RankedTensorType.
     if (isa<mlir::IntegerType>(condVal.getType())) {
       // handle scalar case
-      rewriter.create<mlir::cf::AssertOp>(op.getLoc(), condVal,
-                                          assertMessage.str());
+      cf::AssertOp::create(rewriter, op.getLoc(), condVal, assertMessage.str());
     } else if (auto tensorType =
                    dyn_cast<RankedTensorType>(condVal.getType())) {
       // handle tensor case
@@ -834,8 +832,8 @@ struct AssertConverter : public OpConversionPattern<triton::AssertOp> {
       SmallVector<utils::IteratorType, 3> iteratorTypes(
           rank, utils::IteratorType::parallel);
 
-      rewriter.create<linalg::GenericOp>(
-          op.getLoc(), TypeRange{}, condVal, ValueRange{},
+      linalg::GenericOp::create(
+          rewriter, op.getLoc(), TypeRange{}, condVal, ValueRange{},
           ArrayRef<AffineMap>{indexingMaps},
           ArrayRef<utils::IteratorType>{iteratorTypes},
           [&](OpBuilder &b, Location loc, ValueRange args) {
@@ -843,9 +841,9 @@ struct AssertConverter : public OpConversionPattern<triton::AssertOp> {
             Value element = args[0];
 
             // make a cf.assert for the current element
-            b.create<mlir::cf::AssertOp>(loc, element, assertMessage.str());
+            cf::AssertOp::create(b, loc, element, assertMessage.str());
 
-            b.create<linalg::YieldOp>(loc);
+            linalg::YieldOp::create(b, loc);
           });
     } else {
       op.emitError("Unexpected type in triton::AssertOp");
@@ -868,8 +866,8 @@ struct BitcastConverter : public OpConversionPattern<triton::BitcastOp> {
       return failure();
     }
 
-    auto arithBitcast = rewriter.create<arith::BitcastOp>(
-        op.getLoc(), op.getType(), op.getOperand());
+    auto arithBitcast = arith::BitcastOp::create(rewriter, op.getLoc(),
+                                                 op.getType(), op.getOperand());
 
     rewriter.replaceOp(op, arithBitcast.getResult());
     return success();
@@ -908,8 +906,8 @@ struct CallConverter : public OpConversionPattern<triton::CallOp> {
       }
     }
 
-    auto call = rewriter.create<func::CallOp>(op.getLoc(), op.getCallee(),
-                                              op.getResultTypes(), args);
+    auto call = func::CallOp::create(rewriter, op.getLoc(), op.getCallee(),
+                                     op.getResultTypes(), args);
 
     if (!call) {
       op.emitError("Failed to create func::CallOp");
@@ -946,14 +944,14 @@ struct FpToFpConverter : public OpConversionPattern<triton::FpToFpOp> {
            "Not a float-like operand or result");
 
     if (operandWidth.value() > resultWidth.value()) {
-      Value truncatedValue = rewriter.create<arith::TruncFOp>(
-          op.getLoc(), resultType, op.getOperand());
+      Value truncatedValue = arith::TruncFOp::create(
+          rewriter, op.getLoc(), resultType, op.getOperand());
       rewriter.replaceOp(op, truncatedValue);
       return success();
     }
 
-    Value extendedValue = rewriter.create<arith::ExtFOp>(
-        op.getLoc(), resultType, op.getOperand());
+    Value extendedValue = arith::ExtFOp::create(rewriter, op.getLoc(),
+                                                resultType, op.getOperand());
     rewriter.replaceOp(op, extendedValue);
 
     return success();
@@ -975,11 +973,11 @@ struct ClampConverter : public OpConversionPattern<triton::ClampFOp> {
 
     Value clamp;
     if (propagateNan) {
-      Value maxMin = rewriter.create<arith::MaximumFOp>(loc, x, min);
-      clamp = rewriter.create<arith::MinimumFOp>(loc, maxMin, max);
+      Value maxMin = arith::MaximumFOp::create(rewriter, loc, x, min);
+      clamp = arith::MinimumFOp::create(rewriter, loc, maxMin, max);
     } else {
-      Value maxMin = rewriter.create<arith::MaxNumFOp>(loc, x, min);
-      clamp = rewriter.create<arith::MinNumFOp>(loc, maxMin, max);
+      Value maxMin = arith::MaxNumFOp::create(rewriter, loc, x, min);
+      clamp = arith::MinNumFOp::create(rewriter, loc, maxMin, max);
     }
     rewriter.replaceOp(op, clamp);
 
@@ -995,7 +993,7 @@ struct PreciseSqrtConverter
   matchAndRewrite(triton::PreciseSqrtOp op, OpAdaptor adaptor,
                   ConversionPatternRewriter &rewriter) const override {
     auto replacement =
-        rewriter.create<math::SqrtOp>(op.getLoc(), adaptor.getOperands());
+        math::SqrtOp::create(rewriter, op.getLoc(), adaptor.getOperands());
 
     rewriter.replaceOp(op, replacement);
     return success();
@@ -1009,7 +1007,7 @@ struct PreciseDivConverter : public OpConversionPattern<triton::PreciseDivFOp> {
   matchAndRewrite(triton::PreciseDivFOp op, OpAdaptor adaptor,
                   ConversionPatternRewriter &rewriter) const override {
     auto replacement =
-        rewriter.create<arith::DivFOp>(op.getLoc(), adaptor.getOperands());
+        arith::DivFOp::create(rewriter, op.getLoc(), adaptor.getOperands());
 
     rewriter.replaceOp(op, replacement);
     return success();
@@ -1022,8 +1020,8 @@ struct CatConverter : public OpConversionPattern<triton::CatOp> {
   LogicalResult
   matchAndRewrite(triton::CatOp op, OpAdaptor adaptor,
                   ConversionPatternRewriter &rewriter) const override {
-    auto replacement = rewriter.create<tensor::ConcatOp>(
-        op.getLoc(), 0 /* concat dimension */, adaptor.getOperands());
+    auto replacement = tensor::ConcatOp::create(
+        rewriter, op.getLoc(), 0 /* concat dimension */, adaptor.getOperands());
 
     rewriter.replaceOp(op, replacement);
 
@@ -1060,8 +1058,8 @@ struct SplitConverter : public OpConversionPattern<triton::SplitOp> {
 
       offsets.push_back(rewriter.getIndexAttr(i));
       sizes.push_back(rewriter.getIndexAttr(1));
-      Value slice = rewriter.create<tensor::ExtractSliceOp>(
-          loc, resultTensor, input, offsets, sizes, strides);
+      Value slice = tensor::ExtractSliceOp::create(
+          rewriter, loc, resultTensor, input, offsets, sizes, strides);
       results.push_back(slice);
     }
 
@@ -1081,8 +1079,8 @@ struct JoinConverter : public OpConversionPattern<triton::JoinOp> {
     auto resultType = cast<RankedTensorType>(op.getResult().getType());
 
     auto loc = op.getLoc();
-    Value result = rewriter.create<tensor::EmptyOp>(
-        loc, resultType.getShape(), resultType.getElementType());
+    Value result = tensor::EmptyOp::create(rewriter, loc, resultType.getShape(),
+                                           resultType.getElementType());
 
     auto shape = resultType.getShape();
 
@@ -1099,8 +1097,8 @@ struct JoinConverter : public OpConversionPattern<triton::JoinOp> {
 
       offsets.push_back(rewriter.getIndexAttr(i));
       sizes.push_back(rewriter.getIndexAttr(1));
-      result = rewriter.create<tensor::InsertSliceOp>(loc, inputs[i], result,
-                                                      offsets, sizes, strides);
+      result = tensor::InsertSliceOp::create(rewriter, loc, inputs[i], result,
+                                             offsets, sizes, strides);
     }
 
     rewriter.replaceOp(op, result);
@@ -1118,7 +1116,7 @@ struct MulHiUIOpConverter : public OpConversionPattern<triton::MulhiUIOp> {
     Location loc = op.getLoc();
 
     auto mulResult =
-        rewriter.create<arith::MulUIExtendedOp>(loc, adaptor.getOperands());
+        arith::MulUIExtendedOp::create(rewriter, loc, adaptor.getOperands());
     rewriter.replaceOp(op, mulResult.getHigh());
 
     return success();
@@ -1169,29 +1167,28 @@ struct MatmulConverter : public OpConversionPattern<triton::DotOp> {
     bool integers = elementType.isInteger();
     bool skipC = isZeroTensor(opc, integers);
     auto init =
-        rewriter.create<tensor::EmptyOp>(loc, dstType.getShape(), elementType);
+        tensor::EmptyOp::create(rewriter, loc, dstType.getShape(), elementType);
     TypedAttr constantAttr =
         integers
             ? static_cast<TypedAttr>(rewriter.getIntegerAttr(elementType, 0))
             : static_cast<TypedAttr>(rewriter.getFloatAttr(elementType, 0));
 
-    auto zero = rewriter.create<mlir::arith::ConstantOp>(
-        op.getLoc(), elementType, constantAttr);
+    auto zero = arith::ConstantOp::create(rewriter, op.getLoc(), elementType,
+                                          constantAttr);
 
-    auto zeroes =
-        rewriter.create<linalg::FillOp>(loc, ValueRange{zero}, ValueRange{init})
-            .result();
+    auto zeroes = linalg::FillOp::create(rewriter, loc, ValueRange{zero},
+                                         ValueRange{init})
+                      .result();
 
-    auto res = rewriter
-                   .create<linalg::MatmulOp>(loc, ValueRange{opa, opb},
-                                             ValueRange{zeroes})
+    auto res = linalg::MatmulOp::create(rewriter, loc, ValueRange{opa, opb},
+                                        ValueRange{zeroes})
                    .getResult(0);
 
     if (!skipC) {
       if (integers) {
-        res = rewriter.create<arith::AddIOp>(loc, opc, res);
+        res = arith::AddIOp::create(rewriter, loc, opc, res);
       } else {
-        res = rewriter.create<arith::AddFOp>(loc, opc, res);
+        res = arith::AddFOp::create(rewriter, loc, opc, res);
       }
     }
 
@@ -1273,8 +1270,8 @@ private:
               return nullptr;
             });
 
-    return rewriter.create<arith::ConstantOp>(redOp->getLoc(), constantType,
-                                              attr);
+    return arith::ConstantOp::create(rewriter, redOp->getLoc(), constantType,
+                                     attr);
   }
 
   bool requiresF32Conversion(const Type elemType, Operation *redOp) const {
@@ -1291,16 +1288,16 @@ private:
     return llvm::TypeSwitch<Operation *, Value>(redOp)
         .Case<arith::AddFOp, arith::MulFOp>([&](auto redOp) {
           if (convertLhsToF32Precision) {
-            lhs = b.create<arith::ExtFOp>(loc, Float32Type::get(b.getContext()),
-                                          lhs);
+            lhs = arith::ExtFOp::create(b, loc,
+                                        Float32Type::get(b.getContext()), lhs);
           }
-          return b.create<decltype(redOp)>(loc, lhs, rhs);
+          return decltype(redOp)::create(b, loc, lhs, rhs);
         })
         .Case<arith::AddIOp, arith::AndIOp, arith::XOrIOp, arith::MaximumFOp,
               arith::MaxNumFOp, arith::MulIOp, arith::MinimumFOp,
               arith::MinNumFOp, arith::MinSIOp, arith::MinUIOp, arith::MaxSIOp,
               arith::MaxUIOp, arith::OrIOp>([&](auto redOp) {
-          return b.create<decltype(redOp)>(loc, lhs, rhs);
+          return decltype(redOp)::create(b, loc, lhs, rhs);
         })
         .Default([](Operation *op) {
           op->dump();
@@ -1379,40 +1376,40 @@ private:
       // directly instead of EmptyOp so that the subsequent pass can recognize
       // the patterns (EmptyOp is susceptible to being CSE'd away, making it
       // harder to match the patterns correctly).
-      initTensor = rewriter.create<bufferization::AllocTensorOp>(
-          loc, RankedTensorType::get({}, constantType), ValueRange{});
-      initTensor = rewriter.create<tensor::InsertOp>(loc, accBaseConstOp,
-                                                     initTensor, ValueRange{});
+      initTensor = bufferization::AllocTensorOp::create(
+          rewriter, loc, RankedTensorType::get({}, constantType), ValueRange{});
+      initTensor = tensor::InsertOp::create(rewriter, loc, accBaseConstOp,
+                                            initTensor, ValueRange{});
     } else {
-      Value init = rewriter.create<tensor::EmptyOp>(
-          loc, cast<RankedTensorType>(resType).getShape(), constantType);
-      initTensor = rewriter
-                       .create<linalg::FillOp>(loc, ValueRange{accBaseConstOp},
-                                               ValueRange{init})
-                       .result();
+      Value init = tensor::EmptyOp::create(
+          rewriter, loc, cast<RankedTensorType>(resType).getShape(),
+          constantType);
+      initTensor =
+          linalg::FillOp::create(rewriter, loc, ValueRange{accBaseConstOp},
+                                 ValueRange{init})
+              .result();
     }
 
     Value finalResult =
-        rewriter
-            .create<linalg::ReduceOp>(
-                loc, ValueRange{source}, ValueRange{initTensor},
-                SmallVector<int64_t>{axis},
-                [&](OpBuilder &opBuilder, Location loc, ValueRange inputs) {
-                  assert(inputs.size() == 2);
-                  Value result =
-                      getRedElement(inputs[0], inputs[1], loc, rop, opBuilder,
-                                    convertToF32Precision);
-                  opBuilder.create<linalg::YieldOp>(loc, result);
-                })
+        linalg::ReduceOp::create(
+            rewriter, loc, ValueRange{source}, ValueRange{initTensor},
+            SmallVector<int64_t>{axis},
+            [&](OpBuilder &opBuilder, Location loc, ValueRange inputs) {
+              assert(inputs.size() == 2);
+              Value result = getRedElement(inputs[0], inputs[1], loc, rop,
+                                           opBuilder, convertToF32Precision);
+              linalg::YieldOp::create(opBuilder, loc, result);
+            })
             .getResult(0);
 
     if (isVectorReduce) {
       finalResult =
-          rewriter.create<tensor::ExtractOp>(loc, constantType, finalResult);
+          tensor::ExtractOp::create(rewriter, loc, constantType, finalResult);
     }
 
     if (convertToF32Precision) {
-      finalResult = rewriter.create<arith::TruncFOp>(loc, resType, finalResult);
+      finalResult =
+          arith::TruncFOp::create(rewriter, loc, resType, finalResult);
     }
 
     rewriter.replaceOp(op, finalResult);
@@ -1570,10 +1567,9 @@ class ArgMinMaxBaseConverter : public OpConversionPattern<triton::ReduceOp> {
                       ArrayRef<int64_t> shape, Value fillValue,
                       Location loc) const {
     Value initTensor =
-        rewriter.create<tensor::EmptyOp>(loc, shape, fillValue.getType());
-    return rewriter
-        .create<linalg::FillOp>(loc, ValueRange{fillValue},
-                                ValueRange{initTensor})
+        tensor::EmptyOp::create(rewriter, loc, shape, fillValue.getType());
+    return linalg::FillOp::create(rewriter, loc, ValueRange{fillValue},
+                                  ValueRange{initTensor})
         .result();
   }
 
@@ -1648,15 +1644,15 @@ public:
     // the result value to either -inf or +inf depending on
     // whether we're dealing with argmax or argmin
     auto valueType = elemTypes[0];
-    auto valuesAccBaseVal = rewriter.create<arith::ConstantOp>(
-        loc, valueType,
+    auto valuesAccBaseVal = arith::ConstantOp::create(
+        rewriter, loc, valueType,
         rewriter.getFloatAttr(valueType, T::getBaseReductionValue()));
 
     // Set the initial value of the rank-0 tensor containing the index of the
     // min or max value to -1
     auto indexType = elemTypes[1];
-    auto indicesAccBaseVal = rewriter.create<arith::ConstantOp>(
-        loc, indexType, rewriter.getIntegerAttr(indexType, -1));
+    auto indicesAccBaseVal = arith::ConstantOp::create(
+        rewriter, loc, indexType, rewriter.getIntegerAttr(indexType, -1));
 
     // Get the shape of the resulting tensors (both for values and indices). If
     // we are reducing to a single scalar, then the result's type is a tensor of
@@ -1671,8 +1667,8 @@ public:
         getInitTensor(rewriter, reductionResultShape, valuesAccBaseVal, loc),
         getInitTensor(rewriter, reductionResultShape, indicesAccBaseVal, loc)};
 
-    auto linalgOp = rewriter.create<linalg::ReduceOp>(
-        loc, adaptor.getOperands(), outputs,
+    auto linalgOp = linalg::ReduceOp::create(
+        rewriter, loc, adaptor.getOperands(), outputs,
         SmallVector<int64_t>{adaptor.getAxis()},
         [&](OpBuilder &b, Location loc, ValueRange inputs) {
           assert(inputs.size() == 4);
@@ -1690,15 +1686,15 @@ public:
               llvm::map_to_vector(tritonYield->getOperands(), [&](Value val) {
                 return mapping.lookup(val);
               });
-          b.create<linalg::YieldOp>(loc, results);
+          linalg::YieldOp::create(b, loc, results);
         });
 
     if (isScalarReduce) {
       SmallVector<Value> reduceResults{
-          rewriter.create<tensor::ExtractOp>(
-              loc, valueType, linalgOp.getResults()[0], ValueRange{}),
-          rewriter.create<tensor::ExtractOp>(
-              loc, indexType, linalgOp.getResults()[1], ValueRange{})};
+          tensor::ExtractOp::create(rewriter, loc, valueType,
+                                    linalgOp.getResults()[0], ValueRange{}),
+          tensor::ExtractOp::create(rewriter, loc, indexType,
+                                    linalgOp.getResults()[1], ValueRange{})};
       rewriter.replaceOp(op, reduceResults);
     } else {
       rewriter.replaceOp(op, linalgOp);
@@ -1927,8 +1923,9 @@ struct DenseConstantConverter : public OpConversionPattern<arith::ConstantOp> {
     auto splatConst = arith::ConstantOp::materialize(
         rewriter, attr.getSplatValue<Attribute>(), attr.getElementType(), loc);
 
-    auto init = rewriter.create<tensor::EmptyOp>(
-        loc, cast<RankedTensorType>(op.getResult().getType()).getShape(),
+    auto init = tensor::EmptyOp::create(
+        rewriter, loc,
+        cast<RankedTensorType>(op.getResult().getType()).getShape(),
         attr.getElementType());
 
     rewriter.replaceOpWithNewOp<linalg::FillOp>(op, ValueRange{splatConst},
@@ -1996,8 +1993,8 @@ public:
               "= {1, 2} and axis = rank - 1");
     }
 
-    Value init = rewriter.create<tensor::EmptyOp>(op.getLoc(), type.getShape(),
-                                                  type.getElementType());
+    Value init = tensor::EmptyOp::create(rewriter, op.getLoc(), type.getShape(),
+                                         type.getElementType());
 
     rewriter.replaceOpWithNewOp<ttx::CumSumOp>(
         op, input, rewriter.getUI32IntegerAttr(axis), init);
@@ -2032,7 +2029,7 @@ class AddPtrConverter : public OpConversionPattern<triton::AddPtrOp> {
               builder.create(loc, op->getName().getIdentifier(),
                              regionArgs.take_front(op->getNumOperands()),
                              resultTypes, op->getAttrs());
-          builder.create<linalg::YieldOp>(loc, scalarOp->getResults());
+          linalg::YieldOp::create(builder, loc, scalarOp->getResults());
         });
     return success();
   }
@@ -2063,8 +2060,8 @@ class TensorOpConverter : public OpConversionPattern<OpType> {
         rewriter.getMultiDimIdentityMap(rank));
     SmallVector<utils::IteratorType> iteratorTypes(
         rank, utils::IteratorType::parallel);
-    SmallVector<Value> outputs = {rewriter.create<tensor::EmptyOp>(
-        op->getLoc(), resultTensorType.getShape(),
+    SmallVector<Value> outputs = {tensor::EmptyOp::create(
+        rewriter, op->getLoc(), resultTensorType.getShape(),
         resultTensorType.getElementType())};
     rewriter.replaceOpWithNewOp<linalg::GenericOp>(
         op, op->getResultTypes(), op->getOperands(), outputs, indexingMaps,
@@ -2078,7 +2075,7 @@ class TensorOpConverter : public OpConversionPattern<OpType> {
               builder.create(loc, op->getName().getIdentifier(),
                              regionArgs.take_front(op->getNumOperands()),
                              resultTypes, op->getAttrs());
-          builder.create<linalg::YieldOp>(loc, scalarOp->getResults());
+          linalg::YieldOp::create(builder, loc, scalarOp->getResults());
         });
     return success();
   }
@@ -2116,7 +2113,7 @@ class StorePtrToLinalgConverter : public OpConversionPattern<triton::StoreOp> {
               builder.create(loc, op->getName().getIdentifier(),
                              regionArgs.take_front(op->getNumOperands()),
                              resultTypes, op->getAttrs());
-          builder.create<linalg::YieldOp>(loc, scalarOp->getResults());
+          linalg::YieldOp::create(builder, loc, scalarOp->getResults());
         });
     return success();
   }
@@ -2154,8 +2151,8 @@ public:
 
     ArrayRef<int64_t> outputShape = outputType.getShape();
 
-    auto shape = rewriter.create<arith::ConstantOp>(
-        loc, rewriter.getI64TensorAttr(outputShape));
+    auto shape = arith::ConstantOp::create(
+        rewriter, loc, rewriter.getI64TensorAttr(outputShape));
     rewriter.replaceOpWithNewOp<tensor::ReshapeOp>(op, outputType, input,
                                                    shape);
 
diff --git a/include/triton-shared/Conversion/TritonToLinalg/CMakeLists.txt b/include/triton-shared/Conversion/TritonToLinalg/CMakeLists.txt
deleted file mode 100644
index 74ccdd3..0000000
--- a/include/triton-shared/Conversion/TritonToLinalg/CMakeLists.txt
+++ /dev/null
@@ -1,9 +0,0 @@
-#===------------------------------------------------------------------------===#
-#
-# Copyright (c) Triton Project Contributors.
-#
-#===------------------------------------------------------------------------===#
-
-set(LLVM_TARGET_DEFINITIONS Passes.td)
-mlir_tablegen(Passes.h.inc -gen-pass-decls --name TritonToLinalg)
-add_public_tablegen_target(TritonToLinalgConversionPassIncGen)
diff --git a/include/triton-shared/Conversion/TritonToLinalg/Passes.h b/include/triton-shared/Conversion/TritonToLinalg/Passes.h
deleted file mode 100644
index 404af08..0000000
--- a/include/triton-shared/Conversion/TritonToLinalg/Passes.h
+++ /dev/null
@@ -1,22 +0,0 @@
-//===----------------------------------------------------------------------===//
-//
-// Copyright (c) Microsoft Corporation.
-// Licensed under the MIT license.
-//
-//===----------------------------------------------------------------------===//
-
-#ifndef TRITON_TO_LINALG_CONVERSION_PASSES_H
-#define TRITON_TO_LINALG_CONVERSION_PASSES_H
-
-#include "triton-shared/Conversion/TritonToLinalg/TritonToLinalg.h"
-
-namespace mlir {
-namespace triton {
-
-#define GEN_PASS_REGISTRATION
-#include "triton-shared/Conversion/TritonToLinalg/Passes.h.inc"
-
-} // namespace triton
-} // namespace mlir
-
-#endif
diff --git a/include/triton-shared/Conversion/TritonToLinalg/Passes.td b/include/triton-shared/Conversion/TritonToLinalg/Passes.td
deleted file mode 100644
index 627077e..0000000
--- a/include/triton-shared/Conversion/TritonToLinalg/Passes.td
+++ /dev/null
@@ -1,18 +0,0 @@
-//===----------------------------------------------------------------------===//
-//
-// Copyright (c) Microsoft Corporation.
-// Licensed under the MIT license.
-//
-//===----------------------------------------------------------------------===//
-
-#ifndef TRITON_TO_LINALG_CONVERSION_PASSES
-#define TRITON_TO_LINALG_CONVERSION_PASSES
-
-include "mlir/Pass/PassBase.td"
-
-def TritonToLinalg : Pass<"triton-to-linalg", "mlir::ModuleOp"> {
-  let summary = "Convert Triton to Linalg dialect";
-  let constructor = "triton::createTritonToLinalgPass()";
-}
-
-#endif
diff --git a/include/triton-shared/Conversion/TritonToLinalg/TritonToLinalg.h b/include/triton-shared/Conversion/TritonToLinalg/TritonToLinalg.h
deleted file mode 100644
index 4c58e99..0000000
--- a/include/triton-shared/Conversion/TritonToLinalg/TritonToLinalg.h
+++ /dev/null
@@ -1,33 +0,0 @@
-//===----------------------------------------------------------------------===//
-//
-// Copyright (c) Microsoft Corporation.
-// Licensed under the MIT license.
-//
-//===----------------------------------------------------------------------===//
-
-#ifndef TRITON_CONVERSION_TRITONTOLINALG_TRITONTOLINALG_H
-#define TRITON_CONVERSION_TRITONTOLINALG_TRITONTOLINALG_H
-
-#include "mlir/Dialect/Bufferization/IR/Bufferization.h"
-#include "mlir/Dialect/Linalg/IR/Linalg.h"
-#include "mlir/Pass/Pass.h"
-#include "mlir/Transforms/DialectConversion.h"
-
-#include "triton/Dialect/Triton/IR/Dialect.h"
-
-namespace mlir {
-namespace triton {
-
-std::unique_ptr<OperationPass<ModuleOp>> createTritonToLinalgPass();
-
-void populateTritonToLinalgCanonicalizationPatterns(
-    RewritePatternSet &patterns);
-
-void populateTritonToLinalgConversionPatterns(TypeConverter &typeConverter,
-                                              RewritePatternSet &patterns,
-                                              unsigned int launchGridRank);
-
-} // namespace triton
-} // namespace mlir
-
-#endif // TRITON_CONVERSION_TRITONTOLINALG_TRITONTOLINALG_H
diff --git a/lib/Analysis/MaskAnalysis.cpp b/lib/Analysis/MaskAnalysis.cpp
index 1aa9760..5b84859 100644
--- a/lib/Analysis/MaskAnalysis.cpp
+++ b/lib/Analysis/MaskAnalysis.cpp
@@ -65,11 +65,10 @@ tensor::ExtractSliceOp MaskState::getExtractSlice(Value source,
   SmallVector<OpFoldResult> offsets(getRank(), builder.getIndexAttr(0));
   SmallVector<OpFoldResult> strides(getRank(), builder.getIndexAttr(1));
 
-  auto dstType = tensor::ExtractSliceOp::inferResultType(sourceType, offsets,
-                                                         dims, strides);
+  auto dstType = tensor::ExtractSliceOp::inferResultType(sourceType, dims);
 
-  return builder.create<tensor::ExtractSliceOp>(loc, dstType, source, offsets,
-                                                dims, strides);
+  return tensor::ExtractSliceOp::create(builder, loc, dstType, source, offsets,
+                                        dims, strides);
 }
 
 memref::SubViewOp MaskState::getSubview(Value source, const Location loc,
@@ -80,8 +79,8 @@ memref::SubViewOp MaskState::getSubview(Value source, const Location loc,
   auto dstType =
       memref::SubViewOp::inferResultType(sourceType, offsets, dims, strides);
 
-  return builder.create<memref::SubViewOp>(loc, cast<MemRefType>(dstType),
-                                           source, offsets, dims, strides);
+  return memref::SubViewOp::create(builder, loc, cast<MemRefType>(dstType),
+                                   source, offsets, dims, strides);
 }
 
 static memref::SubViewOp createSubview(Value src, Location loc, OpBuilder &b,
@@ -91,8 +90,8 @@ static memref::SubViewOp createSubview(Value src, Location loc, OpBuilder &b,
   auto srcType = cast<MemRefType>(src.getType());
   auto dstType =
       memref::SubViewOp::inferResultType(srcType, offsets, sizes, strides);
-  return b.create<memref::SubViewOp>(loc, cast<MemRefType>(dstType), src,
-                                     offsets, sizes, strides);
+  return memref::SubViewOp::create(b, loc, cast<MemRefType>(dstType), src,
+                                   offsets, sizes, strides);
 }
 
 // Assume block1 wraps around and the remainder is block2.
@@ -155,7 +154,8 @@ MaskState::getSideBySideSubviews(Value block1, Value block2, const Location loc,
                                  OpBuilder &builder) const {
   OpFoldResult subviewRowFull = dims[0];
   OpFoldResult subviewColFull = dims[1];
-  OpFoldResult col1 = builder.create<memref::DimOp>(loc, block1, 1).getResult();
+  OpFoldResult col1 =
+      memref::DimOp::create(builder, loc, block1, 1).getResult();
   OpFoldResult subviewCol1 = minOFRs(col1, subviewColFull, loc, builder);
   OpFoldResult subviewCol2 = subOFRs(subviewColFull, subviewCol1, loc, builder);
 
@@ -174,7 +174,8 @@ MaskState::getStackedSubviews(Value block1, Value block2, const Location loc,
                               OpBuilder &builder) const {
   OpFoldResult subviewRowFull = dims[0];
   OpFoldResult subviewColFull = dims[1];
-  OpFoldResult row1 = builder.create<memref::DimOp>(loc, block1, 0).getResult();
+  OpFoldResult row1 =
+      memref::DimOp::create(builder, loc, block1, 0).getResult();
   OpFoldResult subviewRow1 = minOFRs(row1, subviewRowFull, loc, builder);
   OpFoldResult subviewRow2 = subOFRs(subviewRowFull, subviewRow1, loc, builder);
 
@@ -314,8 +315,8 @@ LogicalResult MaskState::parseIntScalar(Value scalar, const Location loc,
   if (scalar.getType().isInteger(1)) {
     this->scalar = scalar;
   } else {
-    auto castOp =
-        builder.create<arith::IndexCastOp>(loc, builder.getIndexType(), scalar);
+    auto castOp = arith::IndexCastOp::create(builder, loc,
+                                             builder.getIndexType(), scalar);
     this->scalar = castOp.getResult();
   }
   return success();
@@ -407,18 +408,17 @@ LogicalResult MaskState::parseAnd(arith::AndIOp andOp, const Location loc,
             }
             auto targetTensorType =
                 RankedTensorType::get({size}, builder.getI32Type());
-            Value range =
-                builder
-                    .create<triton::MakeRangeOp>(loc, targetTensorType, 0, size)
-                    .getResult();
+            Value range = triton::MakeRangeOp::create(builder, loc,
+                                                      targetTensorType, 0, size)
+                              .getResult();
             Value v = ofrToIndexValue(ofr, loc, builder);
-            v = builder
-                    .create<arith::IndexCastUIOp>(loc, builder.getI32Type(), v)
+            v = arith::IndexCastUIOp::create(builder, loc, builder.getI32Type(),
+                                             v)
                     .getResult();
-            v = builder.create<triton::SplatOp>(loc, targetTensorType, v)
+            v = triton::SplatOp::create(builder, loc, targetTensorType, v)
                     .getResult();
-            return builder
-                .create<arith::CmpIOp>(loc, arith::CmpIPredicate::ult, range, v)
+            return arith::CmpIOp::create(builder, loc,
+                                         arith::CmpIPredicate::ult, range, v)
                 .getResult();
           };
           if (!lhsV) {
@@ -436,7 +436,7 @@ LogicalResult MaskState::parseAnd(arith::AndIOp andOp, const Location loc,
             continue;
           }
           // And the mask.
-          masks.push_back(builder.create<arith::AndIOp>(loc, lhsV, rhsV));
+          masks.push_back(arith::AndIOp::create(builder, loc, lhsV, rhsV));
         }
       }
       // Only support one unstructured mask.
@@ -494,8 +494,8 @@ LogicalResult MaskState::parseCmp(arith::CmpIOp cmpOp, const Location loc,
         SmallVector<ReassociationIndices> reassociation =
             *maybeReassociationMap;
         // Set masks.
-        unstructuredMask = builder.create<tensor::CollapseShapeOp>(
-            loc, flatType, cmpOp, reassociation);
+        unstructuredMask = tensor::CollapseShapeOp::create(
+            builder, loc, flatType, cmpOp, reassociation);
       }
       masks[cmpOpDim] = unstructuredMask;
     }
diff --git a/lib/Analysis/OpFoldResultUtils.cpp b/lib/Analysis/OpFoldResultUtils.cpp
index 49ae4c4..85d7842 100644
--- a/lib/Analysis/OpFoldResultUtils.cpp
+++ b/lib/Analysis/OpFoldResultUtils.cpp
@@ -59,7 +59,7 @@ Value ofrToValue(const OpFoldResult ofr, const Location loc, OpBuilder &b) {
 
   auto attr = dyn_cast<Attribute>(ofr);
   auto typedAttr = dyn_cast<TypedAttr>(attr);
-  return b.create<arith::ConstantOp>(loc, typedAttr);
+  return arith::ConstantOp::create(b, loc, typedAttr);
 }
 
 Value ofrToIndexValue(const OpFoldResult ofr, const Location loc,
@@ -67,14 +67,14 @@ Value ofrToIndexValue(const OpFoldResult ofr, const Location loc,
   if (Value val = dyn_cast<Value>(ofr)) {
     assert(val.getType().isIntOrIndex());
     if (!val.getType().isIndex()) {
-      val = b.create<arith::IndexCastOp>(loc, b.getIndexType(), val);
+      val = arith::IndexCastOp::create(b, loc, b.getIndexType(), val);
     }
     return val;
   }
 
   auto intVal = getIntAttr(ofr);
   if (intVal.has_value()) {
-    return b.create<arith::ConstantOp>(loc, b.getIndexAttr(intVal.value()));
+    return arith::ConstantOp::create(b, loc, b.getIndexAttr(intVal.value()));
   }
   llvm_unreachable("Unexpected OpFoldResult state");
   return nullptr;
@@ -93,14 +93,14 @@ Value indexTypeCast(Value v, Type targetTy, const Location loc, OpBuilder &b) {
   if (isa<IndexType>(targetTy) || isa<IndexType>(ty)) {
     assert((isa<IntegerType>(targetTy) || isa<IntegerType>(ty)) &&
            "Only cast between index type and integer type");
-    return b.create<arith::IndexCastOp>(loc, targetTy, v).getResult();
+    return arith::IndexCastOp::create(b, loc, targetTy, v).getResult();
   } else {
     auto targetIntTy = cast<IntegerType>(targetTy);
     auto intTy = cast<IntegerType>(ty);
     if (targetIntTy.getWidth() > intTy.getWidth())
-      return b.create<arith::ExtSIOp>(loc, targetTy, v).getResult();
+      return arith::ExtSIOp::create(b, loc, targetTy, v).getResult();
     else
-      return b.create<arith::TruncIOp>(loc, targetTy, v).getResult();
+      return arith::TruncIOp::create(b, loc, targetTy, v).getResult();
   }
 }
 
@@ -114,8 +114,8 @@ OpFoldResult expandOFRIndex(OpFoldResult ofr, OpFoldResult targetForTy,
 
   Value v = dyn_cast<Value>(ofr);
   if (!v)
-    v = b.create<arith::ConstantOp>(loc,
-                                    cast<IntegerAttr>(cast<Attribute>(ofr)));
+    v = arith::ConstantOp::create(b, loc,
+                                  cast<IntegerAttr>(cast<Attribute>(ofr)));
 
   Type ty = v.getType();
   if (targetTy == ty)
@@ -127,7 +127,7 @@ OpFoldResult expandOFRIndex(OpFoldResult ofr, OpFoldResult targetForTy,
     // cast to target element type first.
     if (targetEltTy != ty)
       v = indexTypeCast(v, targetEltTy, loc, b);
-    return b.create<triton::SplatOp>(loc, targetTy, v).getResult();
+    return triton::SplatOp::create(b, loc, targetTy, v).getResult();
   } else if (targetShapedTy && shapedTy) {
     Type targetEltTy = targetShapedTy.getElementType();
     Type eltTy = shapedTy.getElementType();
@@ -148,26 +148,26 @@ OpFoldResult expandOFRIndex(OpFoldResult ofr, OpFoldResult targetForTy,
       SmallVector<Value> shapeValues;
       for (auto dim : targetShapedTy.getShape()) {
         shapeValues.push_back(
-            b.create<arith::ConstantOp>(loc, b.getIndexAttr(dim)));
+            arith::ConstantOp::create(b, loc, b.getIndexAttr(dim)));
       }
       RankedTensorType targetShapeTensorTy = RankedTensorType::get(
           targetShapedTy.getShape().size(), b.getIndexType());
-      auto shapeTensor = b.create<tensor::FromElementsOp>(
-          loc, targetShapeTensorTy, shapeValues);
-      return b.create<triton::ReshapeOp>(loc, targetTy, v, shapeTensor)
+      auto shapeTensor = tensor::FromElementsOp::create(
+          b, loc, targetShapeTensorTy, shapeValues);
+      return triton::ReshapeOp::create(b, loc, targetTy, v, shapeTensor)
           .getResult();
     }
     if (isa<IndexType>(targetEltTy) || isa<IndexType>(eltTy)) {
       assert((isa<IntegerType>(targetEltTy) || isa<IntegerType>(eltTy)) &&
              "Only cast between index type and integer type");
-      return b.create<arith::IndexCastOp>(loc, targetTy, v).getResult();
+      return arith::IndexCastOp::create(b, loc, targetTy, v).getResult();
     } else {
       auto targetIntTy = cast<IntegerType>(targetEltTy);
       auto intTy = cast<IntegerType>(eltTy);
       if (targetIntTy.getWidth() > intTy.getWidth())
-        return b.create<arith::ExtSIOp>(loc, targetTy, v).getResult();
+        return arith::ExtSIOp::create(b, loc, targetTy, v).getResult();
       else
-        return b.create<arith::TruncIOp>(loc, targetTy, v).getResult();
+        return arith::TruncIOp::create(b, loc, targetTy, v).getResult();
     }
   } else {
     assert(!shapedTy && "src type rank should be >= target type rank");
@@ -194,18 +194,18 @@ OpFoldResult addOFRs(const OpFoldResult lhs, const OpFoldResult rhs,
   auto lhsValue = dyn_cast<Value>(lhs);
   if (lhsIntAttr) {
     auto lhsOp =
-        b.create<arith::ConstantOp>(loc, b.getIndexAttr(lhsIntAttr.value()));
+        arith::ConstantOp::create(b, loc, b.getIndexAttr(lhsIntAttr.value()));
     lhsValue = lhsOp.getResult();
   }
 
   auto rhsValue = dyn_cast<Value>(rhs);
   if (rhsIntAttr) {
     auto rhsOp =
-        b.create<arith::ConstantOp>(loc, b.getIndexAttr(rhsIntAttr.value()));
+        arith::ConstantOp::create(b, loc, b.getIndexAttr(rhsIntAttr.value()));
     rhsValue = rhsOp.getResult();
   }
 
-  return b.create<arith::AddIOp>(loc, lhsValue, rhsValue).getResult();
+  return arith::AddIOp::create(b, loc, lhsValue, rhsValue).getResult();
 }
 
 OpFoldResult subOFRs(const OpFoldResult lhs, const OpFoldResult rhs,
@@ -225,18 +225,18 @@ OpFoldResult subOFRs(const OpFoldResult lhs, const OpFoldResult rhs,
   auto lhsValue = dyn_cast<Value>(lhs);
   if (lhsIntAttr) {
     auto lhsOp =
-        b.create<arith::ConstantOp>(loc, b.getIndexAttr(lhsIntAttr.value()));
+        arith::ConstantOp::create(b, loc, b.getIndexAttr(lhsIntAttr.value()));
     lhsValue = lhsOp.getResult();
   }
 
   auto rhsValue = dyn_cast<Value>(rhs);
   if (rhsIntAttr) {
     auto rhsOp =
-        b.create<arith::ConstantOp>(loc, b.getIndexAttr(rhsIntAttr.value()));
+        arith::ConstantOp::create(b, loc, b.getIndexAttr(rhsIntAttr.value()));
     rhsValue = rhsOp.getResult();
   }
 
-  auto sumOp = b.create<arith::SubIOp>(loc, lhsValue, rhsValue);
+  auto sumOp = arith::SubIOp::create(b, loc, lhsValue, rhsValue);
   return sumOp.getResult();
 }
 
@@ -280,17 +280,17 @@ OpFoldResult mulOFRs(const OpFoldResult lhs, const OpFoldResult rhs,
   // otherwise, need to create instructions to calculate new attribute value
   if (lhsIntAttr) {
     auto lhsOp =
-        b.create<arith::ConstantOp>(loc, b.getIndexAttr(lhsIntAttr.value()));
+        arith::ConstantOp::create(b, loc, b.getIndexAttr(lhsIntAttr.value()));
     lhsValue = lhsOp.getResult();
   }
 
   if (rhsIntAttr) {
     auto rhsOp =
-        b.create<arith::ConstantOp>(loc, b.getIndexAttr(rhsIntAttr.value()));
+        arith::ConstantOp::create(b, loc, b.getIndexAttr(rhsIntAttr.value()));
     rhsValue = rhsOp.getResult();
   }
 
-  return b.create<arith::MulIOp>(loc, lhsValue, rhsValue).getResult();
+  return arith::MulIOp::create(b, loc, lhsValue, rhsValue).getResult();
 }
 
 OpFoldResult minOFRs(const OpFoldResult lhs, const OpFoldResult rhs,
@@ -306,18 +306,18 @@ OpFoldResult minOFRs(const OpFoldResult lhs, const OpFoldResult rhs,
   auto lhsValue = dyn_cast<Value>(lhs);
   if (lhsIntAttr) {
     auto lhsOp =
-        b.create<arith::ConstantOp>(loc, b.getIndexAttr(lhsIntAttr.value()));
+        arith::ConstantOp::create(b, loc, b.getIndexAttr(lhsIntAttr.value()));
     lhsValue = lhsOp.getResult();
   }
 
   auto rhsValue = dyn_cast<Value>(rhs);
   if (rhsIntAttr) {
     auto rhsOp =
-        b.create<arith::ConstantOp>(loc, b.getIndexAttr(rhsIntAttr.value()));
+        arith::ConstantOp::create(b, loc, b.getIndexAttr(rhsIntAttr.value()));
     rhsValue = rhsOp.getResult();
   }
 
-  auto minOp = b.create<arith::MinSIOp>(loc, lhsValue, rhsValue);
+  auto minOp = arith::MinSIOp::create(b, loc, lhsValue, rhsValue);
   return minOp.getResult();
 }
 
@@ -334,18 +334,18 @@ OpFoldResult maxOFRs(const OpFoldResult lhs, const OpFoldResult rhs,
   auto lhsValue = dyn_cast<Value>(lhs);
   if (lhsIntAttr) {
     auto lhsOp =
-        b.create<arith::ConstantOp>(loc, b.getIndexAttr(lhsIntAttr.value()));
+        arith::ConstantOp::create(b, loc, b.getIndexAttr(lhsIntAttr.value()));
     lhsValue = lhsOp.getResult();
   }
 
   auto rhsValue = dyn_cast<Value>(rhs);
   if (rhsIntAttr) {
     auto rhsOp =
-        b.create<arith::ConstantOp>(loc, b.getIndexAttr(rhsIntAttr.value()));
+        arith::ConstantOp::create(b, loc, b.getIndexAttr(rhsIntAttr.value()));
     rhsValue = rhsOp.getResult();
   }
 
-  auto maxOp = b.create<arith::MaxSIOp>(loc, lhsValue, rhsValue);
+  auto maxOp = arith::MaxSIOp::create(b, loc, lhsValue, rhsValue);
   return maxOp.getResult();
 }
 
@@ -359,7 +359,7 @@ OpFoldResult selectOFRs(const OpFoldResult condOFR, const OpFoldResult trueOFR,
          "Condition for selectOp must be a bool type");
 
   auto selectOp =
-      b.create<arith::SelectOp>(loc, condValue, trueValue, falseValue);
+      arith::SelectOp::create(b, loc, condValue, trueValue, falseValue);
   return selectOp.getResult();
 }
 
@@ -398,7 +398,7 @@ OpFoldResult compareOFRs(const OpFoldResult lhs, const OpFoldResult rhs,
   auto lhsValue = ofrToIndexValue(lhs, loc, b);
   auto rhsValue = ofrToIndexValue(rhs, loc, b);
 
-  auto cmpOp = b.create<arith::CmpIOp>(loc, pred, lhsValue, rhsValue);
+  auto cmpOp = arith::CmpIOp::create(b, loc, pred, lhsValue, rhsValue);
   return selectOFRs(cmpOp.getResult(), trueOFR, falseOFR, loc, b);
 }
 
diff --git a/lib/Analysis/PtrAnalysis.cpp b/lib/Analysis/PtrAnalysis.cpp
index 2fc2f85..1a17567 100644
--- a/lib/Analysis/PtrAnalysis.cpp
+++ b/lib/Analysis/PtrAnalysis.cpp
@@ -82,7 +82,7 @@ void PtrState::addState(const PtrState &lhsState, const PtrState &rhsState,
 
   if (lhsState.scalar && rhsState.scalar) {
     auto addOp =
-        rewriter.create<arith::AddIOp>(loc, lhsState.scalar, rhsState.scalar);
+        arith::AddIOp::create(rewriter, loc, lhsState.scalar, rhsState.scalar);
     scalar = addOp.getResult();
   } else if (lhsState.getRank() == 0) { // both lhs and rhs are scalars
     scalar = lhsState.scalar ? lhsState.scalar : rhsState.scalar;
@@ -210,28 +210,28 @@ PtrState::createStackedCastOps(ArrayRef<int64_t> resultShape,
   Value strideRow = ofrToIndexValue(strides[0], loc, rewriter);
   Value strideCol = ofrToIndexValue(strides[1], loc, rewriter);
 
-  Value modRow = rewriter.create<arith::IndexCastOp>(
-      loc, rewriter.getIndexType(), modulos[0]->size);
+  Value modRow = arith::IndexCastOp::create(
+      rewriter, loc, rewriter.getIndexType(), modulos[0]->size);
 
   // First chunk
   Value wrappedAroundOff =
-      rewriter.create<arith::RemSIOp>(loc, targetOffset, strideRow);
-  Value clampedOff = rewriter.create<arith::MulIOp>(loc, modRow, strideRow);
+      arith::RemSIOp::create(rewriter, loc, targetOffset, strideRow);
+  Value clampedOff = arith::MulIOp::create(rewriter, loc, modRow, strideRow);
   clampedOff =
-      rewriter.create<arith::AddIOp>(loc, clampedOff, wrappedAroundOff);
-  Value d1 = rewriter.create<arith::SubIOp>(loc, clampedOff, targetOffset);
-  d1 = rewriter.create<arith::DivSIOp>(loc, d1, strideRow);
+      arith::AddIOp::create(rewriter, loc, clampedOff, wrappedAroundOff);
+  Value d1 = arith::SubIOp::create(rewriter, loc, clampedOff, targetOffset);
+  d1 = arith::DivSIOp::create(rewriter, loc, d1, strideRow);
 
   SmallVector<Value> sizes1{d1, colSize};
-  memref::ReinterpretCastOp cast1 = rewriter.create<memref::ReinterpretCastOp>(
-      loc, resultType, source, targetOffset, sizes1,
+  memref::ReinterpretCastOp cast1 = memref::ReinterpretCastOp::create(
+      rewriter, loc, resultType, source, targetOffset, sizes1,
       ValueRange{strideRow, strideCol});
 
   // Second chunk
-  Value d2 = rewriter.create<arith::SubIOp>(loc, rowSize, d1);
+  Value d2 = arith::SubIOp::create(rewriter, loc, rowSize, d1);
   SmallVector<Value> sizes2{d2, colSize};
-  memref::ReinterpretCastOp cast2 = rewriter.create<memref::ReinterpretCastOp>(
-      loc, resultType, source, wrappedAroundOff, sizes2,
+  memref::ReinterpretCastOp cast2 = memref::ReinterpretCastOp::create(
+      rewriter, loc, resultType, source, wrappedAroundOff, sizes2,
       ValueRange{strideRow, strideCol});
 
   return {cast1, cast2};
@@ -299,29 +299,29 @@ PtrState::createSideBySideCastOps(ArrayRef<int64_t> resultShape,
   Value rowSize = ofrToIndexValue(sizes[0], loc, rewriter);
   Value colSize = ofrToIndexValue(sizes[1], loc, rewriter);
 
-  Value modN = rewriter.create<arith::IndexCastOp>(loc, rewriter.getIndexType(),
-                                                   modulos[1]->size);
+  Value modN = arith::IndexCastOp::create(
+      rewriter, loc, rewriter.getIndexType(), modulos[1]->size);
 
-  Value x = rewriter.create<arith::RemSIOp>(loc, targetOffset, modN);
-  Value y = rewriter.create<arith::SubIOp>(loc, targetOffset, x);
+  Value x = arith::RemSIOp::create(rewriter, loc, targetOffset, modN);
+  Value y = arith::SubIOp::create(rewriter, loc, targetOffset, x);
 
   SmallVector<Value> strideVals = ofrsToIndexValues(strides, loc, rewriter);
 
   // First chunk
-  Value nextOffset = rewriter.create<arith::AddIOp>(loc, x, colSize);
-  Value clampedOffset = rewriter.create<arith::MinSIOp>(loc, nextOffset, modN);
-  Value d1 = rewriter.create<arith::SubIOp>(loc, clampedOffset, x);
+  Value nextOffset = arith::AddIOp::create(rewriter, loc, x, colSize);
+  Value clampedOffset = arith::MinSIOp::create(rewriter, loc, nextOffset, modN);
+  Value d1 = arith::SubIOp::create(rewriter, loc, clampedOffset, x);
   SmallVector<Value> sizes1{rowSize, d1};
 
-  auto cast1 = rewriter.create<memref::ReinterpretCastOp>(
-      loc, resultType, source, targetOffset, sizes1, strideVals);
+  auto cast1 = memref::ReinterpretCastOp::create(
+      rewriter, loc, resultType, source, targetOffset, sizes1, strideVals);
 
   // Second chunk
-  Value d2 = rewriter.create<arith::SubIOp>(loc, colSize, d1);
+  Value d2 = arith::SubIOp::create(rewriter, loc, colSize, d1);
   SmallVector<Value> sizes2{rowSize, d2};
 
-  auto cast2 = rewriter.create<memref::ReinterpretCastOp>(
-      loc, resultType, source, y, sizes2, strideVals);
+  auto cast2 = memref::ReinterpretCastOp::create(rewriter, loc, resultType,
+                                                 source, y, sizes2, strideVals);
 
   return {cast1, cast2};
 }
@@ -341,8 +341,8 @@ PtrState::createCastOp(ArrayRef<int64_t> resultShape, const Location loc,
       getResultMemrefType(rewriter.getContext(), staticOffset[0], resultShape);
 
   // Create reinterpret cast
-  return rewriter.create<memref::ReinterpretCastOp>(
-      loc, resultType, source, targetOffset, sizes, strides);
+  return memref::ReinterpretCastOp::create(rewriter, loc, resultType, source,
+                                           targetOffset, sizes, strides);
 }
 
 void PtrAnalysis::visitOperandAdd(
@@ -648,8 +648,8 @@ void PtrAnalysis::visitOperand(
   }
 
   if (isa<IntegerType>(operand.getType())) {
-    auto castOp = rewriter.create<arith::IndexCastOp>(
-        loc, rewriter.getIndexType(), operand);
+    auto castOp = arith::IndexCastOp::create(rewriter, loc,
+                                             rewriter.getIndexType(), operand);
     state.scalar = castOp.getResult();
     return;
   }
@@ -805,10 +805,10 @@ void PtrAnalysis::rewriteAddptrOp(
         rewriter.getContext(), ShapedType::kDynamic, resultShape);
 
     UnrealizedConversionCastOp combinedCast =
-        rewriter.create<UnrealizedConversionCastOp>(
-            op.getLoc(), resultType,
-            ValueRange{casts[0].getResult(), casts[1].getResult(),
-                       op.getResult()});
+        UnrealizedConversionCastOp::create(rewriter, op.getLoc(), resultType,
+                                           ValueRange{casts[0].getResult(),
+                                                      casts[1].getResult(),
+                                                      op.getResult()});
 
     combinedCast->setAttr(ModuloState::WraparoundAttr,
                           rewriter.getStringAttr(type));
@@ -858,18 +858,18 @@ void PtrAnalysis::rewriteAdvanceOp(
        llvm::zip(incrementOffsets, ptrState.offsets, ptrState.strides)) {
     Value offsetValue;
     if (auto offsetIntAttr = getIntAttr(offset)) {
-      auto constOp = rewriter.create<arith::ConstantOp>(
-          op.getLoc(), rewriter.getIndexAttr(0));
+      auto constOp = arith::ConstantOp::create(rewriter, op.getLoc(),
+                                               rewriter.getIndexAttr(0));
       offsetValue = constOp.getResult();
     } else {
       offsetValue = cast<Value>(offset);
     }
-    auto castOp = rewriter.create<arith::IndexCastOp>(
-        loc, rewriter.getIndexType(), increment);
-    auto mulOp = rewriter.create<arith::MulIOp>(loc, castOp.getResult(),
-                                                cast<Value>(stride));
+    auto castOp = arith::IndexCastOp::create(
+        rewriter, loc, rewriter.getIndexType(), increment);
+    auto mulOp = arith::MulIOp::create(rewriter, loc, castOp.getResult(),
+                                       cast<Value>(stride));
     auto addOp =
-        rewriter.create<arith::AddIOp>(loc, mulOp.getResult(), offsetValue);
+        arith::AddIOp::create(rewriter, loc, mulOp.getResult(), offsetValue);
     newOffsets.push_back(addOp.getResult());
   }
 
@@ -995,8 +995,8 @@ void PtrAnalysis::rewriteYieldOp(
       // zeroes.
       if (auto sIntAttr = getIntAttr(s)) {
         assert(sIntAttr.value() == 0 && "attribute offsets should be zeroes");
-        auto constOp = rewriter.create<arith::ConstantOp>(
-            op.getLoc(), rewriter.getIndexAttr(0));
+        auto constOp = arith::ConstantOp::create(rewriter, op.getLoc(),
+                                                 rewriter.getIndexAttr(0));
         operands.push_back(constOp.getResult());
       } else {
         operands.push_back(cast<Value>(s));
@@ -1166,8 +1166,8 @@ void PtrAnalysis::rewriteForOp(
     for (auto [j, s] : llvm::enumerate(state.offsets)) {
       auto sIntAttr = getIntAttr(s);
       if (sIntAttr) {
-        auto constOp = rewriter.create<arith::ConstantOp>(
-            op.getLoc(), rewriter.getIndexAttr(sIntAttr.value()));
+        auto constOp = arith::ConstantOp::create(
+            rewriter, op.getLoc(), rewriter.getIndexAttr(sIntAttr.value()));
         newInitArgs.push_back(constOp.getResult());
         state.offsets[j] = constOp.getResult();
       } else {
@@ -1178,8 +1178,8 @@ void PtrAnalysis::rewriteForOp(
     for (auto [j, s] : llvm::enumerate(state.strides)) {
       auto sIntAttr = getIntAttr(s);
       if (sIntAttr) {
-        auto constOp = rewriter.create<arith::ConstantOp>(
-            op.getLoc(), rewriter.getIndexAttr(sIntAttr.value()));
+        auto constOp = arith::ConstantOp::create(
+            rewriter, op.getLoc(), rewriter.getIndexAttr(sIntAttr.value()));
         newInitArgs.push_back(constOp.getResult());
         state.strides[j] = constOp.getResult();
       } else {
@@ -1240,9 +1240,10 @@ void PtrAnalysis::rewriteForOp(
   rewriter.restoreInsertionPoint(origIp);
 
   // Create a new scf::ForOp that uses updated init args and same loop body
-  auto newOp = rewriter.create<scf::ForOp>(
-      op.getLoc(), op.getLowerBound(), op.getUpperBound(), op.getStep(),
-      newInitArgs, [&](OpBuilder &b, Location loc, Value iv, ValueRange args) {
+  auto newOp = scf::ForOp::create(
+      rewriter, op.getLoc(), op.getLowerBound(), op.getUpperBound(),
+      op.getStep(), newInitArgs,
+      [&](OpBuilder &b, Location loc, Value iv, ValueRange args) {
         IRMapping mapping;
         mapping.map(op.getInductionVar(), iv);
         mapping.map(op.getInitArgs(), newInitArgs);
@@ -1266,7 +1267,7 @@ void PtrAnalysis::rewriteForOp(
         b.setInsertionPointToStart(b.getBlock());
 
         Value zero =
-            rewriter.create<arith::ConstantOp>(loc, rewriter.getIndexAttr(0));
+            arith::ConstantOp::create(rewriter, loc, rewriter.getIndexAttr(0));
 
         for (auto &[unrealizedCastOp, chunkData, state] : moduloStates) {
           SmallVector<Value> newReinterpretCasts;
@@ -1274,9 +1275,9 @@ void PtrAnalysis::rewriteForOp(
             newReinterpretCasts.push_back(args[chunk.initArgIndex]);
           }
 
-          auto combinedCast = b.create<UnrealizedConversionCastOp>(
-              loc, unrealizedCastOp.getResult(0).getType(), newReinterpretCasts,
-              unrealizedCastOp->getAttrs());
+          auto combinedCast = UnrealizedConversionCastOp::create(
+              b, loc, unrealizedCastOp.getResult(0).getType(),
+              newReinterpretCasts, unrealizedCastOp->getAttrs());
 
           args[chunkData[0].initArgIndex].replaceUsesWithIf(
               combinedCast.getResult(0), [](OpOperand &operand) {
diff --git a/lib/AnalysisStructured/PtrAnalysis.cpp b/lib/AnalysisStructured/PtrAnalysis.cpp
index 2253c80..e5b6ece 100644
--- a/lib/AnalysisStructured/PtrAnalysis.cpp
+++ b/lib/AnalysisStructured/PtrAnalysis.cpp
@@ -63,29 +63,26 @@ static Value applyUnstructuredMask(Operation *op, Value ptr,
       return nullptr;
     }
 
-    ptr =
-        builder
-            .create<tts::MakeGatherScatterTensorPtrOp>(
-                loc, gatherScatterPtr.getBase(),
-                gatherScatterPtr.getGatherScatterOffset(), unstructuredMask,
-                gatherScatterPtr.getGatherScatterDim(),
-                gatherScatterPtr.getSizes(), gatherScatterPtr.getMixedStrides(),
-                gatherScatterPtr.getMixedOffsets())
-            .getResult();
+    ptr = tts::MakeGatherScatterTensorPtrOp::create(
+              builder, loc, gatherScatterPtr.getBase(),
+              gatherScatterPtr.getGatherScatterOffset(), unstructuredMask,
+              gatherScatterPtr.getGatherScatterDim(),
+              gatherScatterPtr.getSizes(), gatherScatterPtr.getMixedStrides(),
+              gatherScatterPtr.getMixedOffsets())
+              .getResult();
   } else if (auto structuredPtr = ptr.getDefiningOp<tts::MakeTensorPtrOp>()) {
     auto ofrToI32Value = [&](OpFoldResult ofr) {
       Value v = dyn_cast<Value>(ofr);
       if (!v) {
-        v = builder
-                .create<arith::ConstantOp>(
-                    loc, cast<TypedAttr>(cast<Attribute>(ofr)))
+        v = arith::ConstantOp::create(builder, loc,
+                                      cast<TypedAttr>(cast<Attribute>(ofr)))
                 .getResult();
       }
       if (isa<IndexType>(v.getType())) {
-        v = builder.create<arith::IndexCastOp>(loc, builder.getI32Type(), v)
+        v = arith::IndexCastOp::create(builder, loc, builder.getI32Type(), v)
                 .getResult();
       } else if (v.getType().isInteger(64)) {
-        v = builder.create<arith::TruncIOp>(loc, builder.getI32Type(), v)
+        v = arith::TruncIOp::create(builder, loc, builder.getI32Type(), v)
                 .getResult();
       }
 
@@ -100,22 +97,20 @@ static Value applyUnstructuredMask(Operation *op, Value ptr,
     // Divide stride since offset of tts::MakeTensorPtrOp already include the
     // stride, but gatherScatterOffset of tts::MakeGatherScatterTensorPtrOp
     // should not include stride.
-    offset = builder.create<arith::DivUIOp>(loc, offset, stride);
+    offset = arith::DivUIOp::create(builder, loc, offset, stride);
 
     Value gatherScatterOffset =
-        builder.create<tensor::SplatOp>(loc, offsetRowType, offset).getResult();
-    Value range = builder
-                      .create<triton::MakeRangeOp>(
-                          loc, offsetRowType, 0, structuredPtr.getSizes()[dim])
+        tensor::SplatOp::create(builder, loc, offsetRowType, offset)
+            .getResult();
+    Value range = triton::MakeRangeOp::create(builder, loc, offsetRowType, 0,
+                                              structuredPtr.getSizes()[dim])
                       .getResult();
     gatherScatterOffset =
-        builder.create<arith::AddIOp>(loc, gatherScatterOffset, range);
-    ptr = builder
-              .create<tts::MakeGatherScatterTensorPtrOp>(
-                  loc, structuredPtr.getBase(), gatherScatterOffset,
-                  unstructuredMask, dim, structuredPtr.getSizes(),
-                  structuredPtr.getMixedStrides(),
-                  structuredPtr.getMixedOffsets())
+        arith::AddIOp::create(builder, loc, gatherScatterOffset, range);
+    ptr = tts::MakeGatherScatterTensorPtrOp::create(
+              builder, loc, structuredPtr.getBase(), gatherScatterOffset,
+              unstructuredMask, dim, structuredPtr.getSizes(),
+              structuredPtr.getMixedStrides(), structuredPtr.getMixedOffsets())
               .getResult();
   } else {
     return nullptr;
@@ -291,7 +286,7 @@ LogicalResult PtrState::addState(const PtrState &lhsState,
 
   if (lhsState.scalar && rhsState.scalar) {
     auto addOp =
-        builder.create<arith::AddIOp>(loc, lhsState.scalar, rhsState.scalar);
+        arith::AddIOp::create(builder, loc, lhsState.scalar, rhsState.scalar);
     scalar = addOp.getResult();
   } else if (lhsState.getRank() == 0) { // both lhs and rhs are scalars
     scalar = lhsState.scalar ? lhsState.scalar : rhsState.scalar;
@@ -569,7 +564,7 @@ LogicalResult PtrState::mulState(const PtrState &lhsState,
 
   if (lhsState.scalar && rhsState.scalar) {
     scalar =
-        builder.create<arith::MulIOp>(loc, lhsState.scalar, rhsState.scalar);
+        arith::MulIOp::create(builder, loc, lhsState.scalar, rhsState.scalar);
   }
 
   auto indexTy = IndexType::get(op->getContext());
@@ -662,8 +657,8 @@ tts::MakeTensorPtrOp PtrState::createTTSMakeTensorPtrOp(OpBuilder &builder,
     staticSizes.push_back(s.value());
   }
 
-  auto op = builder.create<mlir::tts::MakeTensorPtrOp>(
-      loc, source, staticSizes, strides, offsets, shape, order);
+  auto op = tts::MakeTensorPtrOp::create(builder, loc, source, staticSizes,
+                                         strides, offsets, shape, order);
   LLVM_DEBUG({
     llvm::dbgs() << "creating tts::make_tensor_ptr:\n";
     op->dump();
@@ -700,16 +695,15 @@ PtrState::createTTSMakeGatherScatterTensorPtrOp(OpBuilder &builder,
     auto collapseTy =
         RankedTensorType::get({offsetSize}, offsetTy.getElementType());
     nonContinuousOffset =
-        builder
-            .create<tensor::CollapseShapeOp>(
-                loc, collapseTy, nonContinuousOffset, reassociationMap)
+        tensor::CollapseShapeOp::create(builder, loc, collapseTy,
+                                        nonContinuousOffset, reassociationMap)
             .getResult();
     offsets[nonContinuousDim] = nonContinuousOffset;
   }
   // Generate tts::make_gather_scatter_tensor_ptr.
-  auto op = builder.create<mlir::tts::MakeGatherScatterTensorPtrOp>(
-      loc, source, nonContinuousOffset, nonContinuousDim, staticSizes, strides,
-      offsets);
+  auto op = tts::MakeGatherScatterTensorPtrOp::create(
+      builder, loc, source, nonContinuousOffset, nonContinuousDim, staticSizes,
+      strides, offsets);
   LLVM_DEBUG({
     llvm::dbgs() << "creating tts::make_gather_scatter_tensor_ptr:\n";
     op->dump();
@@ -1135,19 +1129,19 @@ PtrAnalysis::visitOperandMakeTensorPtr(triton::MakeTensorPtrOp makeTPtrOp,
   for (int64_t i = 0; i < pointeeType.getRank(); i++) {
     state.sizes.push_back(builder.getIndexAttr(shape[i]));
 
-    auto strideCst = builder.create<arith::IndexCastOp>(
-        loc, builder.getIndexType(), makeTPtrOp.getStrides()[i]);
+    auto strideCst = arith::IndexCastOp::create(
+        builder, loc, builder.getIndexType(), makeTPtrOp.getStrides()[i]);
     state.strides.push_back(strideCst.getResult());
 
-    auto offsetCst = builder.create<arith::IndexCastOp>(
-        loc, builder.getIndexType(), makeTPtrOp.getOffsets()[i]);
+    auto offsetCst = arith::IndexCastOp::create(
+        builder, loc, builder.getIndexType(), makeTPtrOp.getOffsets()[i]);
 
-    auto scaledOffset = builder.create<arith::MulIOp>(
-        loc, offsetCst.getResult(), strideCst.getResult());
+    auto scaledOffset = arith::MulIOp::create(
+        builder, loc, offsetCst.getResult(), strideCst.getResult());
     state.offsets.push_back(scaledOffset.getResult());
 
-    auto shapeCst = builder.create<arith::IndexCastOp>(
-        loc, builder.getIndexType(), makeTPtrOp.getShape()[i]);
+    auto shapeCst = arith::IndexCastOp::create(
+        builder, loc, builder.getIndexType(), makeTPtrOp.getShape()[i]);
     state.shape.push_back(shapeCst.getResult());
   }
   state.order = SmallVector<int32_t>(makeTPtrOp.getOrder());
@@ -1219,8 +1213,8 @@ LogicalResult PtrAnalysis::visitOperand(Value operand, PtrState &state,
     if (!isa<BlockArgument>(operand) && operand.getDefiningOp()) {
       builder.setInsertionPointAfter(operand.getDefiningOp());
     }
-    auto castOp = builder.create<arith::IndexCastOp>(
-        loc, builder.getIndexType(), operand);
+    auto castOp = arith::IndexCastOp::create(builder, loc,
+                                             builder.getIndexType(), operand);
     state.scalar = castOp.getResult();
     return success();
   } else if (isa<IndexType>(operand.getType())) {
@@ -1390,18 +1384,18 @@ LogicalResult PtrAnalysis::rewriteAdvanceOp(triton::AdvanceOp op) {
        llvm::zip(incrementOffsets, state.offsets, state.strides)) {
     Value offsetValue;
     if (auto offsetIntAttr = getIntAttr(offset)) {
-      auto constOp = builder.create<arith::ConstantOp>(
-          loc, builder.getIndexAttr(offsetIntAttr.value()));
+      auto constOp = arith::ConstantOp::create(
+          builder, loc, builder.getIndexAttr(offsetIntAttr.value()));
       offsetValue = constOp.getResult();
     } else {
       offsetValue = cast<Value>(offset);
     }
-    auto castOp = builder.create<arith::IndexCastOp>(
-        loc, builder.getIndexType(), increment);
-    auto mulOp = builder.create<arith::MulIOp>(loc, castOp.getResult(),
-                                               cast<Value>(stride));
+    auto castOp = arith::IndexCastOp::create(builder, loc,
+                                             builder.getIndexType(), increment);
+    auto mulOp = arith::MulIOp::create(builder, loc, castOp.getResult(),
+                                       cast<Value>(stride));
     auto addOp =
-        builder.create<arith::AddIOp>(loc, mulOp.getResult(), offsetValue);
+        arith::AddIOp::create(builder, loc, mulOp.getResult(), offsetValue);
     newOffsets.push_back(addOp.getResult());
   }
 
@@ -1637,15 +1631,15 @@ PtrAnalysis::rewriteGetStructuredStateOp(tts::GetStructuredStateOp op) {
       // This operand is a pointer directly from the kernel arguments.
       // Use offset 0.
       assert(!tritonValue.getDefiningOp());
-      replacements.push_back(builder.create<arith::ConstantOp>(
-          op.getLoc(), builder.getIndexAttr(0)));
+      replacements.push_back(arith::ConstantOp::create(
+          builder, op.getLoc(), builder.getIndexAttr(0)));
     }
   } else {
     for (auto [j, s] : llvm::enumerate(state.offsets)) {
       auto sIntAttr = getIntAttr(s);
       if (sIntAttr) {
-        auto constOp = builder.create<arith::ConstantOp>(
-            op.getLoc(), builder.getIndexAttr(sIntAttr.value()));
+        auto constOp = arith::ConstantOp::create(
+            builder, op.getLoc(), builder.getIndexAttr(sIntAttr.value()));
         replacements.push_back(constOp.getResult());
       } else {
         replacements.push_back(cast<Value>(s));
@@ -1655,8 +1649,8 @@ PtrAnalysis::rewriteGetStructuredStateOp(tts::GetStructuredStateOp op) {
     for (auto [j, s] : llvm::enumerate(state.strides)) {
       auto sIntAttr = getIntAttr(s);
       if (sIntAttr) {
-        auto constOp = builder.create<arith::ConstantOp>(
-            op.getLoc(), builder.getIndexAttr(sIntAttr.value()));
+        auto constOp = arith::ConstantOp::create(
+            builder, op.getLoc(), builder.getIndexAttr(sIntAttr.value()));
         replacements.push_back(constOp.getResult());
       } else {
         replacements.push_back(cast<Value>(s));
@@ -1720,7 +1714,7 @@ LogicalResult PtrAnalysis::rewriteLoadOp(triton::LoadOp op,
     }
   }
 
-  auto loadOp = builder.create<tts::LoadOp>(loc, ptr, dims, scalarOther);
+  auto loadOp = tts::LoadOp::create(builder, loc, ptr, dims, scalarOther);
 
   LLVM_DEBUG({
     llvm::dbgs() << "creating tts::load:\n";
@@ -1850,7 +1844,7 @@ LogicalResult PtrAnalysis::rewriteStoreOp(triton::StoreOp op,
     dims = mstate.dims;
   }
 
-  auto storeOp = builder.create<tts::StoreOp>(loc, ptr, val, dims);
+  auto storeOp = tts::StoreOp::create(builder, loc, ptr, val, dims);
 
   LLVM_DEBUG({
     llvm::dbgs() << "creating tts::store:\n";
diff --git a/lib/Conversion/CMakeLists.txt b/lib/Conversion/CMakeLists.txt
index 358b4f9..2a591e9 100644
--- a/lib/Conversion/CMakeLists.txt
+++ b/lib/Conversion/CMakeLists.txt
@@ -1,4 +1,3 @@
-add_subdirectory(TritonToLinalg)
 add_subdirectory(TritonToLinalgExperimental)
 add_subdirectory(TritonToStructured)
 add_subdirectory(TritonToUnstructured)
diff --git a/lib/Conversion/StructuredToMemref/StructuredToMemref.cpp b/lib/Conversion/StructuredToMemref/StructuredToMemref.cpp
index 1024029..6a8ca9e 100644
--- a/lib/Conversion/StructuredToMemref/StructuredToMemref.cpp
+++ b/lib/Conversion/StructuredToMemref/StructuredToMemref.cpp
@@ -56,8 +56,8 @@ static memref::SubViewOp getSubview(int rank, ArrayRef<OpFoldResult> dims,
   auto dstType =
       memref::SubViewOp::inferResultType(sourceType, offsets, dims, strides);
 
-  return b.create<memref::SubViewOp>(loc, cast<MemRefType>(dstType), source,
-                                     offsets, dims, strides);
+  return memref::SubViewOp::create(b, loc, cast<MemRefType>(dstType), source,
+                                   offsets, dims, strides);
 }
 
 static Type getElementTypeStructuredPtr(tts::MakeTensorPtrOp op) {
@@ -182,8 +182,9 @@ static Value rewriteGatherScatterPtrElement(
   SmallVector<Value> dynSizes; // sizes are always static
   auto sizes = mlir::getMixedValues(staticSizes, dynSizes, rewriter);
 
-  auto castOp = rewriter.create<memref::ReinterpretCastOp>(
-      op.getLoc(), resultType, basePtr, targetOffset, sizes, mixedStrides);
+  auto castOp = memref::ReinterpretCastOp::create(
+      rewriter, op.getLoc(), resultType, basePtr, targetOffset, sizes,
+      mixedStrides);
 
   return castOp.getResult();
 }
@@ -198,28 +199,28 @@ static void fillWithValue(Location loc, Value alloc, Value other,
   // For each dimension check if dims[i] < shape[i], or-accumulate
   // the result
   auto accBase =
-      rewriter.create<arith::ConstantOp>(loc, rewriter.getBoolAttr(false))
+      arith::ConstantOp::create(rewriter, loc, rewriter.getBoolAttr(false))
           .getResult();
   for (size_t i = 0; i < shape.size(); i++) {
-    auto shapei = rewriter.create<arith::ConstantOp>(
-        loc, rewriter.getIndexAttr(shape[i]));
+    auto shapei = arith::ConstantOp::create(rewriter, loc,
+                                            rewriter.getIndexAttr(shape[i]));
 
     Value dimi = dyn_cast<Value>(mixedDims[i]);
     if (!dimi) {
-      dimi = rewriter.create<arith::ConstantOp>(
-          loc, rewriter.getIndexAttr(staticMaskDims[i]));
+      dimi = arith::ConstantOp::create(
+          rewriter, loc, rewriter.getIndexAttr(staticMaskDims[i]));
     }
 
-    Value cmp = rewriter.create<arith::CmpIOp>(loc, arith::CmpIPredicate::slt,
-                                               dimi, shapei);
-    accBase = rewriter.create<arith::OrIOp>(loc, accBase, cmp);
+    Value cmp = arith::CmpIOp::create(rewriter, loc, arith::CmpIPredicate::slt,
+                                      dimi, shapei);
+    accBase = arith::OrIOp::create(rewriter, loc, accBase, cmp);
   }
 
   // condition the memset on the or-accumulation
   // initialize with padding prior to CopyOp
-  rewriter.create<scf::IfOp>(loc, accBase, [&](OpBuilder &b, Location loc) {
-    b.create<linalg::FillOp>(loc, ValueRange{other}, ValueRange{alloc});
-    b.create<scf::YieldOp>(loc);
+  scf::IfOp::create(rewriter, loc, accBase, [&](OpBuilder &b, Location loc) {
+    linalg::FillOp::create(b, loc, ValueRange{other}, ValueRange{alloc});
+    scf::YieldOp::create(b, loc);
   });
 }
 
@@ -321,35 +322,36 @@ private:
             // wrapping around.
             ShapedType::kDynamic});
 
-    Value rowSize = rewriter.create<arith::ConstantOp>(
-        loc, rewriter.getIndexAttr(op.getSizes()[0]));
-    Value colSize = rewriter.create<arith::ConstantOp>(
-        loc, rewriter.getIndexAttr(op.getSizes()[1]));
+    Value rowSize = arith::ConstantOp::create(
+        rewriter, loc, rewriter.getIndexAttr(op.getSizes()[0]));
+    Value colSize = arith::ConstantOp::create(
+        rewriter, loc, rewriter.getIndexAttr(op.getSizes()[1]));
 
     Value modN = ofrToIndexValue(op.getMixedShape()[1], loc, rewriter);
 
-    Value x = rewriter.create<arith::RemSIOp>(loc, targetOffset, modN);
-    Value y = rewriter.create<arith::SubIOp>(loc, targetOffset, x);
+    Value x = arith::RemSIOp::create(rewriter, loc, targetOffset, modN);
+    Value y = arith::SubIOp::create(rewriter, loc, targetOffset, x);
 
     SmallVector<Value> strideVals =
         ofrsToIndexValues(op.getMixedStrides(), loc, rewriter);
 
     // First chunk
-    Value nextOffset = rewriter.create<arith::AddIOp>(loc, x, colSize);
+    Value nextOffset = arith::AddIOp::create(rewriter, loc, x, colSize);
     Value clampedOffset =
-        rewriter.create<arith::MinSIOp>(loc, nextOffset, modN);
-    Value d1 = rewriter.create<arith::SubIOp>(loc, clampedOffset, x);
+        arith::MinSIOp::create(rewriter, loc, nextOffset, modN);
+    Value d1 = arith::SubIOp::create(rewriter, loc, clampedOffset, x);
     SmallVector<Value> sizes1{rowSize, d1};
 
-    auto cast1 = rewriter.create<memref::ReinterpretCastOp>(
-        loc, resultType, adaptor.getBase(), targetOffset, sizes1, strideVals);
+    auto cast1 = memref::ReinterpretCastOp::create(
+        rewriter, loc, resultType, adaptor.getBase(), targetOffset, sizes1,
+        strideVals);
 
     // Second chunk
-    Value d2 = rewriter.create<arith::SubIOp>(loc, colSize, d1);
+    Value d2 = arith::SubIOp::create(rewriter, loc, colSize, d1);
     SmallVector<Value> sizes2{rowSize, d2};
 
-    auto cast2 = rewriter.create<memref::ReinterpretCastOp>(
-        loc, resultType, adaptor.getBase(), y, sizes2, strideVals);
+    auto cast2 = memref::ReinterpretCastOp::create(
+        rewriter, loc, resultType, adaptor.getBase(), y, sizes2, strideVals);
 
     return {cast1, cast2};
   }
@@ -450,10 +452,10 @@ private:
             // allow this anymore. So we put dynamic instead.
             ShapedType::kDynamic});
 
-    Value rowSize = rewriter.create<arith::ConstantOp>(
-        loc, rewriter.getIndexAttr(op.getSizes()[0]));
-    Value colSize = rewriter.create<arith::ConstantOp>(
-        loc, rewriter.getIndexAttr(op.getSizes()[1]));
+    Value rowSize = arith::ConstantOp::create(
+        rewriter, loc, rewriter.getIndexAttr(op.getSizes()[0]));
+    Value colSize = arith::ConstantOp::create(
+        rewriter, loc, rewriter.getIndexAttr(op.getSizes()[1]));
 
     Value strideRow = ofrToIndexValue(op.getMixedStrides()[0], loc, rewriter);
     Value strideCol = ofrToIndexValue(op.getMixedStrides()[1], loc, rewriter);
@@ -462,26 +464,24 @@ private:
 
     // First chunk
     Value wrappedAroundOff =
-        rewriter.create<arith::RemSIOp>(loc, targetOffset, strideRow);
+        arith::RemSIOp::create(rewriter, loc, targetOffset, strideRow);
     Value clampedOff =
-        rewriter.create<arith::AddIOp>(loc, modRow, wrappedAroundOff);
-    Value d1 = rewriter.create<arith::SubIOp>(loc, clampedOff, targetOffset);
-    d1 = rewriter.create<arith::DivSIOp>(loc, d1, strideRow);
-    d1 = rewriter.create<arith::MinSIOp>(loc, d1, rowSize);
+        arith::AddIOp::create(rewriter, loc, modRow, wrappedAroundOff);
+    Value d1 = arith::SubIOp::create(rewriter, loc, clampedOff, targetOffset);
+    d1 = arith::DivSIOp::create(rewriter, loc, d1, strideRow);
+    d1 = arith::MinSIOp::create(rewriter, loc, d1, rowSize);
 
     SmallVector<Value> sizes1{d1, colSize};
-    memref::ReinterpretCastOp cast1 =
-        rewriter.create<memref::ReinterpretCastOp>(
-            loc, resultType, adaptor.getBase(), targetOffset, sizes1,
-            ValueRange{strideRow, strideCol});
+    memref::ReinterpretCastOp cast1 = memref::ReinterpretCastOp::create(
+        rewriter, loc, resultType, adaptor.getBase(), targetOffset, sizes1,
+        ValueRange{strideRow, strideCol});
 
     // Second chunk
-    Value d2 = rewriter.create<arith::SubIOp>(loc, rowSize, d1);
+    Value d2 = arith::SubIOp::create(rewriter, loc, rowSize, d1);
     SmallVector<Value> sizes2{d2, colSize};
-    memref::ReinterpretCastOp cast2 =
-        rewriter.create<memref::ReinterpretCastOp>(
-            loc, resultType, adaptor.getBase(), wrappedAroundOff, sizes2,
-            ValueRange{strideRow, strideCol});
+    memref::ReinterpretCastOp cast2 = memref::ReinterpretCastOp::create(
+        rewriter, loc, resultType, adaptor.getBase(), wrappedAroundOff, sizes2,
+        ValueRange{strideRow, strideCol});
 
     return {cast1, cast2};
   }
@@ -515,8 +515,8 @@ private:
       llvm_unreachable("Unexpected split pointer shape");
     }
 
-    auto combinedCast = rewriter.create<UnrealizedConversionCastOp>(
-        op.getLoc(), op.getType(), casts);
+    auto combinedCast = UnrealizedConversionCastOp::create(
+        rewriter, op.getLoc(), op.getType(), casts);
 
     combinedCast->setAttr(wrapType, rewriter.getUnitAttr());
 
@@ -541,8 +541,8 @@ private:
         op, staticTargetOffset.value_or(ShapedType::kDynamic), staticStrides,
         resultShape);
 
-    auto castOp = rewriter.create<memref::ReinterpretCastOp>(
-        op.getLoc(), resultType, adaptor.getBase(), targetOffset,
+    auto castOp = memref::ReinterpretCastOp::create(
+        rewriter, op.getLoc(), resultType, adaptor.getBase(), targetOffset,
         op.getMixedSizes(), mixedStrides);
 
     rewriter.replaceOp(op, castOp);
@@ -626,71 +626,67 @@ private:
                               ConversionPatternRewriter &rewriter) const {
 
     auto zero =
-        rewriter.create<arith::ConstantOp>(loc, rewriter.getIndexAttr(0));
+        arith::ConstantOp::create(rewriter, loc, rewriter.getIndexAttr(0));
 
     auto one =
-        rewriter.create<arith::ConstantOp>(loc, rewriter.getIndexAttr(1));
-
-    Value block1Row = rewriter.create<memref::DimOp>(loc, block1, 0);
-    Value block1Col = rewriter.create<memref::DimOp>(loc, block1, 1);
-
-    Value block2Row = rewriter.create<memref::DimOp>(loc, block2, 0);
-    Value block2Col = rewriter.create<memref::DimOp>(loc, block2, 1);
-
-    auto block1Dst =
-        rewriter.create<memref::SubViewOp>(loc, dst, /* offsets */
-                                           ValueRange{zero, zero},
-                                           /* sizes */
-                                           ValueRange{block1Row, block1Col},
-                                           /* strides */
-                                           ValueRange{one, one});
-
-    auto block2Dst =
-        rewriter.create<memref::SubViewOp>(loc, dst,
-                                           /* offsets */
-                                           ValueRange{zero, block1Col},
-                                           /* sizes */
-                                           ValueRange{block2Row, block2Col},
-                                           /* strides */
-                                           ValueRange{one, one});
-
-    rewriter.create<memref::CopyOp>(loc, block1, block1Dst);
-    rewriter.create<memref::CopyOp>(loc, block2, block2Dst);
+        arith::ConstantOp::create(rewriter, loc, rewriter.getIndexAttr(1));
+
+    Value block1Row = memref::DimOp::create(rewriter, loc, block1, 0);
+    Value block1Col = memref::DimOp::create(rewriter, loc, block1, 1);
+
+    Value block2Row = memref::DimOp::create(rewriter, loc, block2, 0);
+    Value block2Col = memref::DimOp::create(rewriter, loc, block2, 1);
+
+    auto block1Dst = memref::SubViewOp::create(rewriter, loc, dst, /* offsets */
+                                               ValueRange{zero, zero},
+                                               /* sizes */
+                                               ValueRange{block1Row, block1Col},
+                                               /* strides */
+                                               ValueRange{one, one});
+
+    auto block2Dst = memref::SubViewOp::create(rewriter, loc, dst,
+                                               /* offsets */
+                                               ValueRange{zero, block1Col},
+                                               /* sizes */
+                                               ValueRange{block2Row, block2Col},
+                                               /* strides */
+                                               ValueRange{one, one});
+
+    memref::CopyOp::create(rewriter, loc, block1, block1Dst);
+    memref::CopyOp::create(rewriter, loc, block2, block2Dst);
   }
 
   void createStackedCopies(Value block1, Value block2, Value dst, Location loc,
                            ConversionPatternRewriter &rewriter) const {
 
     auto zero =
-        rewriter.create<arith::ConstantOp>(loc, rewriter.getIndexAttr(0));
+        arith::ConstantOp::create(rewriter, loc, rewriter.getIndexAttr(0));
     auto one =
-        rewriter.create<arith::ConstantOp>(loc, rewriter.getIndexAttr(1));
-
-    Value block1Row = rewriter.create<memref::DimOp>(loc, block1, 0);
-    Value block1Col = rewriter.create<memref::DimOp>(loc, block1, 1);
-
-    Value block2Row = rewriter.create<memref::DimOp>(loc, block2, 0);
-    Value block2Col = rewriter.create<memref::DimOp>(loc, block2, 1);
-
-    auto block1Dst =
-        rewriter.create<memref::SubViewOp>(loc, dst, /* offsets */
-                                           ValueRange{zero, zero},
-                                           /* sizes */
-                                           ValueRange{block1Row, block1Col},
-                                           /* strides */
-                                           ValueRange{one, one});
-
-    auto block2Dst =
-        rewriter.create<memref::SubViewOp>(loc, dst,
-                                           /* offsets */
-                                           ValueRange{block1Row, zero},
-                                           /* sizes */
-                                           ValueRange{block2Row, block2Col},
-                                           /* strides */
-                                           ValueRange{one, one});
-
-    rewriter.create<memref::CopyOp>(loc, block1, block1Dst);
-    rewriter.create<memref::CopyOp>(loc, block2, block2Dst);
+        arith::ConstantOp::create(rewriter, loc, rewriter.getIndexAttr(1));
+
+    Value block1Row = memref::DimOp::create(rewriter, loc, block1, 0);
+    Value block1Col = memref::DimOp::create(rewriter, loc, block1, 1);
+
+    Value block2Row = memref::DimOp::create(rewriter, loc, block2, 0);
+    Value block2Col = memref::DimOp::create(rewriter, loc, block2, 1);
+
+    auto block1Dst = memref::SubViewOp::create(rewriter, loc, dst, /* offsets */
+                                               ValueRange{zero, zero},
+                                               /* sizes */
+                                               ValueRange{block1Row, block1Col},
+                                               /* strides */
+                                               ValueRange{one, one});
+
+    auto block2Dst = memref::SubViewOp::create(rewriter, loc, dst,
+                                               /* offsets */
+                                               ValueRange{block1Row, zero},
+                                               /* sizes */
+                                               ValueRange{block2Row, block2Col},
+                                               /* strides */
+                                               ValueRange{one, one});
+
+    memref::CopyOp::create(rewriter, loc, block1, block1Dst);
+    memref::CopyOp::create(rewriter, loc, block2, block2Dst);
   }
 
   memref::SubViewOp createSubview(Value src, ArrayRef<OpFoldResult> offsets,
@@ -700,8 +696,8 @@ private:
     auto srcType = cast<MemRefType>(src.getType());
     auto dstType =
         memref::SubViewOp::inferResultType(srcType, offsets, sizes, strides);
-    return rewriter.create<memref::SubViewOp>(loc, cast<MemRefType>(dstType),
-                                              src, offsets, sizes, strides);
+    return memref::SubViewOp::create(rewriter, loc, cast<MemRefType>(dstType),
+                                     src, offsets, sizes, strides);
   }
 
   std::pair<memref::SubViewOp, memref::SubViewOp>
@@ -711,9 +707,9 @@ private:
     OpFoldResult subviewRowFull = dims[0];
     OpFoldResult subviewColFull = dims[1];
     OpFoldResult subviewCol1 =
-        rewriter.create<memref::DimOp>(loc, block1, 1).getResult();
+        memref::DimOp::create(rewriter, loc, block1, 1).getResult();
     OpFoldResult subviewCol2 =
-        rewriter.create<memref::DimOp>(loc, block2, 1).getResult();
+        memref::DimOp::create(rewriter, loc, block2, 1).getResult();
 
     SmallVector<OpFoldResult> offsets(dims.size(), rewriter.getIndexAttr(0));
     SmallVector<OpFoldResult> strides(dims.size(), rewriter.getIndexAttr(1));
@@ -732,9 +728,9 @@ private:
     OpFoldResult subviewRowFull = dims[0];
     OpFoldResult subviewColFull = dims[1];
     OpFoldResult subviewRow1 =
-        rewriter.create<memref::DimOp>(loc, block1, 0).getResult();
+        memref::DimOp::create(rewriter, loc, block1, 0).getResult();
     OpFoldResult subviewRow2 =
-        rewriter.create<memref::DimOp>(loc, block2, 0).getResult();
+        memref::DimOp::create(rewriter, loc, block2, 0).getResult();
 
     SmallVector<OpFoldResult> offsets(dims.size(), rewriter.getIndexAttr(0));
     SmallVector<OpFoldResult> strides(dims.size(), rewriter.getIndexAttr(1));
@@ -757,8 +753,8 @@ private:
     auto tensorType = cast<RankedTensorType>(op.getType());
     auto elemType = tensorType.getElementType();
 
-    auto alloc = rewriter.create<memref::AllocOp>(
-        loc, MemRefType::get(tensorType.getShape(), elemType));
+    auto alloc = memref::AllocOp::create(
+        rewriter, loc, MemRefType::get(tensorType.getShape(), elemType));
 
     // No mask
     assert(!other && "other value used in non-masked load");
@@ -781,11 +777,12 @@ private:
         llvm_unreachable("unexpected wraparound type");
       }
     } else {
-      rewriter.create<memref::CopyOp>(loc, ptr, alloc);
+      memref::CopyOp::create(rewriter, loc, ptr, alloc);
     }
 
-    Value tensor = rewriter.create<bufferization::ToTensorOp>(
-        loc, tensorType, alloc, true /* restrict */, true /* writable */);
+    Value tensor = bufferization::ToTensorOp::create(rewriter, loc, tensorType,
+                                                     alloc, true /* restrict */,
+                                                     true /* writable */);
     rewriter.replaceOp(op, tensor);
 
     return success();
@@ -801,8 +798,8 @@ private:
     auto tensorType = cast<RankedTensorType>(op.getType());
     auto elemType = tensorType.getElementType();
 
-    auto alloc = rewriter.create<memref::AllocOp>(
-        loc, MemRefType::get(tensorType.getShape(), elemType));
+    auto alloc = memref::AllocOp::create(
+        rewriter, loc, MemRefType::get(tensorType.getShape(), elemType));
 
     SmallVector<OpFoldResult> mixedDims = op.getMixedMaskDims();
 
@@ -842,11 +839,12 @@ private:
           getSubview(tensorType.getRank(), mixedDims, ptr, loc, rewriter);
       memref::SubViewOp dstSubview =
           getSubview(tensorType.getRank(), mixedDims, alloc, loc, rewriter);
-      rewriter.create<memref::CopyOp>(loc, srcSubview, dstSubview);
+      memref::CopyOp::create(rewriter, loc, srcSubview, dstSubview);
     }
 
-    Value tensor = rewriter.create<bufferization::ToTensorOp>(
-        loc, tensorType, alloc, true /* restrict */, true /* writable */);
+    Value tensor = bufferization::ToTensorOp::create(rewriter, loc, tensorType,
+                                                     alloc, true /* restrict */,
+                                                     true /* writable */);
     rewriter.replaceOp(op, tensor);
 
     return success();
@@ -864,7 +862,7 @@ private:
     auto indexOffsetTy = RankedTensorType::get(offsetShapedType.getShape(),
                                                rewriter.getIndexType());
     gatherOffset =
-        rewriter.create<arith::IndexCastOp>(loc, indexOffsetTy, gatherOffset)
+        arith::IndexCastOp::create(rewriter, loc, indexOffsetTy, gatherOffset)
             .getResult();
 
     int gatherDim = ptr.getGatherScatterDim();
@@ -881,7 +879,7 @@ private:
     auto resultType = dyn_cast<RankedTensorType>(op.getResult().getType());
     auto allocType =
         MemRefType::get(resultType.getShape(), resultType.getElementType());
-    auto alloc = rewriter.create<memref::AllocOp>(loc, allocType);
+    auto alloc = memref::AllocOp::create(rewriter, loc, allocType);
 
     auto allocStrides = mlir::getMixedValues(
         allocType.getStridesAndOffset().first, dynSizes, rewriter);
@@ -892,9 +890,9 @@ private:
     }
 
     // Create loop to iterate every offset in gatherOffset.
-    auto lowerBound = rewriter.create<arith::ConstantIndexOp>(loc, 0);
+    auto lowerBound = arith::ConstantIndexOp::create(rewriter, loc, 0);
     Value upperBound =
-        rewriter.create<arith::ConstantIndexOp>(loc, offsetSize).getResult();
+        arith::ConstantIndexOp::create(rewriter, loc, offsetSize).getResult();
     if (op.hasMask()) {
       SmallVector<OpFoldResult> mixedDims = op.getMixedMaskDims();
       OpFoldResult gatherMaskDim = mixedDims[gatherDim];
@@ -911,26 +909,26 @@ private:
           gatherMaskDimValue = offsetSize;
         }
         offsetSize = std::min(offsetSize, gatherMaskDimValue);
-        upperBound = rewriter.create<arith::ConstantIndexOp>(loc, offsetSize)
+        upperBound = arith::ConstantIndexOp::create(rewriter, loc, offsetSize)
                          .getResult();
       } else {
         // Use arith::MinSIOp to get the minimum value of gatherMaskDim
         // and offsetSize.
         auto gatherMaskDimVal = cast<Value>(gatherMaskDim);
         auto offsetSizeVal =
-            rewriter.create<arith::ConstantIndexOp>(loc, offsetSize);
-        upperBound =
-            rewriter
-                .create<arith::MinSIOp>(loc, gatherMaskDimVal, offsetSizeVal)
-                .getResult();
+            arith::ConstantIndexOp::create(rewriter, loc, offsetSize);
+        upperBound = arith::MinSIOp::create(rewriter, loc, gatherMaskDimVal,
+                                            offsetSizeVal)
+                         .getResult();
       }
     }
-    auto step = rewriter.create<arith::ConstantIndexOp>(loc, 1);
-    auto loop = rewriter.create<scf::ForOp>(loc, lowerBound, upperBound, step);
+    auto step = arith::ConstantIndexOp::create(rewriter, loc, 1);
+    auto loop = scf::ForOp::create(rewriter, loc, lowerBound, upperBound, step);
 
     // Create tensor from alloc and use it as the result to replace op.
-    Value tensor = rewriter.create<bufferization::ToTensorOp>(
-        loc, op.getType(), alloc, true /* restrict */, true /* writable */);
+    Value tensor = bufferization::ToTensorOp::create(
+        rewriter, loc, op.getType(), alloc, true /* restrict */,
+        true /* writable */);
     rewriter.replaceOp(op, tensor);
 
     // Build loop body.
@@ -941,15 +939,15 @@ private:
     if (Value unstructuredMask = ptr.getGatherScatterMask()) {
       // If the gather scatter mask is present, we need to use it to guard the
       // load.
-      auto maskValue = rewriter.create<tensor::ExtractOp>(
-          loc, unstructuredMask, ValueRange{inductionVar});
-      auto ifOp = rewriter.create<scf::IfOp>(loc, maskValue);
+      auto maskValue = tensor::ExtractOp::create(
+          rewriter, loc, unstructuredMask, ValueRange{inductionVar});
+      auto ifOp = scf::IfOp::create(rewriter, loc, maskValue);
       rewriter.setInsertionPointToStart(&ifOp.getThenRegion().front());
     }
 
     // Load the offsetElt first.
-    auto gatherOffsetElt = rewriter.create<tensor::ExtractOp>(
-        loc, gatherOffset, ValueRange{inductionVar});
+    auto gatherOffsetElt = tensor::ExtractOp::create(
+        rewriter, loc, gatherOffset, ValueRange{inductionVar});
 
     // reinterpret_cast to current row as memRefPtr[gatherOffsetElt].
     Value srcPtr = rewriteGatherScatterPtrElement(staticSizes, ptr, memRefPtr,
@@ -971,11 +969,10 @@ private:
       // Use oneStrides for subview.
       auto dstSubViewType = memref::SubViewOp::inferResultType(
           cast<MemRefType>(srcPtr.getType()), maskOffsets, sizes, oneStrides);
-      srcPtr =
-          rewriter
-              .create<memref::SubViewOp>(loc, cast<MemRefType>(dstSubViewType),
+      srcPtr = memref::SubViewOp::create(rewriter, loc,
+                                         cast<MemRefType>(dstSubViewType),
                                          srcPtr, maskOffsets, sizes, oneStrides)
-              .getResult();
+                   .getResult();
     }
 
     // alloc[inductionVar]
@@ -983,11 +980,11 @@ private:
     allocOffsets[gatherDim] = inductionVar;
     auto dstAllocType = memref::SubViewOp::inferResultType(
         allocType, allocOffsets, sizes, oneStrides);
-    auto dstSubview = rewriter.create<memref::SubViewOp>(
-        loc, cast<MemRefType>(dstAllocType), alloc, allocOffsets, sizes,
-        oneStrides);
+    auto dstSubview =
+        memref::SubViewOp::create(rewriter, loc, cast<MemRefType>(dstAllocType),
+                                  alloc, allocOffsets, sizes, oneStrides);
     // Copy srcPtr to alloc[inductionVar].
-    rewriter.create<memref::CopyOp>(loc, srcPtr, dstSubview);
+    memref::CopyOp::create(rewriter, loc, srcPtr, dstSubview);
 
     return success();
   }
@@ -1024,11 +1021,10 @@ private:
     SmallVector<OpFoldResult> offsets(rank, b.getIndexAttr(0));
     SmallVector<OpFoldResult> strides(rank, b.getIndexAttr(1));
 
-    auto dstType = tensor::ExtractSliceOp::inferResultType(sourceType, offsets,
-                                                           dims, strides);
+    auto dstType = tensor::ExtractSliceOp::inferResultType(sourceType, dims);
 
-    return b.create<tensor::ExtractSliceOp>(loc, dstType, source, offsets, dims,
-                                            strides);
+    return tensor::ExtractSliceOp::create(b, loc, dstType, source, offsets,
+                                          dims, strides);
   }
 
   LogicalResult rewriteScatter(tts::MakeGatherScatterTensorPtrOp ptr,
@@ -1043,7 +1039,7 @@ private:
     auto indexOffsetTy = RankedTensorType::get(offsetShapedType.getShape(),
                                                rewriter.getIndexType());
     gatherOffset =
-        rewriter.create<arith::IndexCastOp>(loc, indexOffsetTy, gatherOffset)
+        arith::IndexCastOp::create(rewriter, loc, indexOffsetTy, gatherOffset)
             .getResult();
 
     int gatherDim = ptr.getGatherScatterDim();
@@ -1057,9 +1053,9 @@ private:
     auto sizes = mlir::getMixedValues(staticSizes, dynSizes, rewriter);
 
     // Create loop to iterate every offset in gatherOffset.
-    auto lowerBound = rewriter.create<arith::ConstantIndexOp>(loc, 0);
+    auto lowerBound = arith::ConstantIndexOp::create(rewriter, loc, 0);
     Value upperBound =
-        rewriter.create<arith::ConstantIndexOp>(loc, offsetSize).getResult();
+        arith::ConstantIndexOp::create(rewriter, loc, offsetSize).getResult();
     if (op.hasMask()) {
       SmallVector<OpFoldResult> mixedDims = op.getMixedMaskDims();
       OpFoldResult gatherMaskDim = mixedDims[gatherDim];
@@ -1076,22 +1072,21 @@ private:
           gatherMaskDimValue = offsetSize;
         }
         offsetSize = std::min(offsetSize, gatherMaskDimValue);
-        upperBound = rewriter.create<arith::ConstantIndexOp>(loc, offsetSize)
+        upperBound = arith::ConstantIndexOp::create(rewriter, loc, offsetSize)
                          .getResult();
       } else {
         // Use arith::MinSIOp to get the minimum value of gatherMaskDim
         // and offsetSize.
         auto gatherMaskDimVal = cast<Value>(gatherMaskDim);
         auto offsetSizeVal =
-            rewriter.create<arith::ConstantIndexOp>(loc, offsetSize);
-        upperBound =
-            rewriter
-                .create<arith::MinSIOp>(loc, gatherMaskDimVal, offsetSizeVal)
-                .getResult();
+            arith::ConstantIndexOp::create(rewriter, loc, offsetSize);
+        upperBound = arith::MinSIOp::create(rewriter, loc, gatherMaskDimVal,
+                                            offsetSizeVal)
+                         .getResult();
       }
     }
-    auto step = rewriter.create<arith::ConstantIndexOp>(loc, 1);
-    auto loop = rewriter.create<scf::ForOp>(loc, lowerBound, upperBound, step);
+    auto step = arith::ConstantIndexOp::create(rewriter, loc, 1);
+    auto loop = scf::ForOp::create(rewriter, loc, lowerBound, upperBound, step);
 
     // Build loop body.
     rewriter.setInsertionPointToStart(loop.getBody());
@@ -1101,15 +1096,15 @@ private:
     if (Value unstructuredMask = ptr.getGatherScatterMask()) {
       // If the gather scatter mask is present, we need to use it to guard the
       // store.
-      auto maskValue = rewriter.create<tensor::ExtractOp>(
-          loc, unstructuredMask, ValueRange{inductionVar});
-      auto ifOp = rewriter.create<scf::IfOp>(loc, maskValue);
+      auto maskValue = tensor::ExtractOp::create(
+          rewriter, loc, unstructuredMask, ValueRange{inductionVar});
+      auto ifOp = scf::IfOp::create(rewriter, loc, maskValue);
       rewriter.setInsertionPointToStart(&ifOp.getThenRegion().front());
     }
 
     // Load the offsetElt first.
-    auto gatherOffsetElt = rewriter.create<tensor::ExtractOp>(
-        loc, gatherOffset, ValueRange{inductionVar});
+    auto gatherOffsetElt = tensor::ExtractOp::create(
+        rewriter, loc, gatherOffset, ValueRange{inductionVar});
 
     // Create extract_slice stVal[inductionVar].
     unsigned rank = ptr.getSizes().size();
@@ -1125,8 +1120,8 @@ private:
     }
     // The subview should not apply an additional stride to the source.
     SmallVector<OpFoldResult> oneStrides(rank, OpFoldResult(step));
-    auto slice = rewriter.create<tensor::ExtractSliceOp>(
-        loc, stVal, stValOffsets, sizes, oneStrides);
+    auto slice = tensor::ExtractSliceOp::create(
+        rewriter, loc, stVal, stValOffsets, sizes, oneStrides);
 
     // reinterpret_cast to current row as memRefPtr[gatherOffsetElt].
     Value dstPtr = rewriteGatherScatterPtrElement(staticSizes, ptr, memRefPtr,
@@ -1141,14 +1136,13 @@ private:
           cast<MemRefType>(dstPtr.getType()), maskOffsets, sizes, oneStrides);
 
       dstPtr =
-          rewriter
-              .create<memref::SubViewOp>(loc, cast<MemRefType>(dstType), dstPtr,
-                                         maskOffsets, sizes, oneStrides)
+          memref::SubViewOp::create(rewriter, loc, cast<MemRefType>(dstType),
+                                    dstPtr, maskOffsets, sizes, oneStrides)
               .getResult();
     }
     // store slice to dstPtr.
-    auto storeOp = rewriter.create<bufferization::MaterializeInDestinationOp>(
-        loc, slice, dstPtr);
+    auto storeOp = bufferization::MaterializeInDestinationOp::create(
+        rewriter, loc, slice, dstPtr);
     storeOp.setWritable(true);
 
     rewriter.eraseOp(op);
@@ -1182,12 +1176,12 @@ public:
           getExtractSlice(rank, mixedDims, storeValue, loc, rewriter);
       auto dstSubview = getSubview(rank, mixedDims, ptr, loc, rewriter);
 
-      auto storeOp = rewriter.create<bufferization::MaterializeInDestinationOp>(
-          loc, srcSlice, dstSubview);
+      auto storeOp = bufferization::MaterializeInDestinationOp::create(
+          rewriter, loc, srcSlice, dstSubview);
       storeOp.setWritable(true);
     } else {
-      auto storeOp = rewriter.create<bufferization::MaterializeInDestinationOp>(
-          loc, storeValue, ptr);
+      auto storeOp = bufferization::MaterializeInDestinationOp::create(
+          rewriter, loc, storeValue, ptr);
       storeOp.setWritable(true);
     }
 
diff --git a/lib/Conversion/StructuredToMemref/StructuredToMemrefPass.cpp b/lib/Conversion/StructuredToMemref/StructuredToMemrefPass.cpp
index c0d4cd0..2a393e8 100644
--- a/lib/Conversion/StructuredToMemref/StructuredToMemrefPass.cpp
+++ b/lib/Conversion/StructuredToMemref/StructuredToMemrefPass.cpp
@@ -51,13 +51,15 @@ public:
     addTargetMaterialization([&](OpBuilder &builder,
                                  UnrankedMemRefType resultType,
                                  ValueRange inputs, Location loc) -> Value {
-      return builder.create<UnrealizedConversionCastOp>(loc, resultType, inputs)
+      return UnrealizedConversionCastOp::create(builder, loc, resultType,
+                                                inputs)
           .getResult(0);
     });
 
     addSourceMaterialization([&](OpBuilder &builder, Type resultType,
                                  ValueRange inputs, Location loc) -> Value {
-      return builder.create<UnrealizedConversionCastOp>(loc, resultType, inputs)
+      return UnrealizedConversionCastOp::create(builder, loc, resultType,
+                                                inputs)
           .getResult(0);
     });
   }
diff --git a/lib/Conversion/TritonArithToLinalg/TritonArithToLinalgPass.cpp b/lib/Conversion/TritonArithToLinalg/TritonArithToLinalgPass.cpp
index 8c86fe2..39cf0ba 100644
--- a/lib/Conversion/TritonArithToLinalg/TritonArithToLinalgPass.cpp
+++ b/lib/Conversion/TritonArithToLinalg/TritonArithToLinalgPass.cpp
@@ -215,7 +215,8 @@ public:
         func.getAllArgAttrs(argAttrs);
         func.getAllResultAttrs(resAttrs);
 
-        auto funcFunc = builder.create<func::FuncOp>(func.getLoc(), name, type);
+        auto funcFunc =
+            func::FuncOp::create(builder, func.getLoc(), name, type);
         // Preserve the visibility attribute
         funcFunc.setVisibility(func.getVisibility());
         funcFunc.setAllArgAttrs(argAttrs);
@@ -234,7 +235,7 @@ public:
           // considered terminators.
           if (isa<triton::ReturnOp>(term)) {
             builder.setInsertionPoint(term);
-            builder.create<func::ReturnOp>(func.getLoc(), term->getOperands());
+            func::ReturnOp::create(builder, func.getLoc(), term->getOperands());
             term->erase();
           }
         }
diff --git a/lib/Conversion/TritonPtrToMemref/TritonPtrToMemrefPass.cpp b/lib/Conversion/TritonPtrToMemref/TritonPtrToMemrefPass.cpp
index b75e7dd..09d8c23 100644
--- a/lib/Conversion/TritonPtrToMemref/TritonPtrToMemrefPass.cpp
+++ b/lib/Conversion/TritonPtrToMemref/TritonPtrToMemrefPass.cpp
@@ -61,7 +61,8 @@ public:
 
     auto createUnrealizedCast = [&](OpBuilder &builder, Type resultType,
                                     ValueRange inputs, Location loc) -> Value {
-      return builder.create<UnrealizedConversionCastOp>(loc, resultType, inputs)
+      return UnrealizedConversionCastOp::create(builder, loc, resultType,
+                                                inputs)
           .getResult(0);
     };
     addSourceMaterialization(createUnrealizedCast);
diff --git a/lib/Conversion/TritonToLinalg/CMakeLists.txt b/lib/Conversion/TritonToLinalg/CMakeLists.txt
deleted file mode 100644
index acc3c4f..0000000
--- a/lib/Conversion/TritonToLinalg/CMakeLists.txt
+++ /dev/null
@@ -1,27 +0,0 @@
-#===------------------------------------------------------------------------===#
-#
-# Copyright (c) Triton Project Contributors.
-#
-#===------------------------------------------------------------------------===#
-
-add_triton_library(TritonToLinalg
-  TritonToLinalg.cpp
-  TritonToLinalgPass.cpp
-
-  DEPENDS
-  TritonToLinalgConversionPassIncGen
-
-  LINK_LIBS PUBLIC
-  TritonTilingExtIR
-  MLIRArithDialect
-  MLIRDialectUtils
-  MLIRIR
-  MLIRMathDialect
-  MLIRPass
-  MLIRTensorDialect
-  MLIRTransforms
-  MLIRSupport
-  TritonIR
-  TritonTransforms
-  TritonSharedAnalysis
-)
diff --git a/lib/Conversion/TritonToLinalg/TritonToLinalg.cpp b/lib/Conversion/TritonToLinalg/TritonToLinalg.cpp
deleted file mode 100644
index 1c8ed9c..0000000
--- a/lib/Conversion/TritonToLinalg/TritonToLinalg.cpp
+++ /dev/null
@@ -1,95 +0,0 @@
-//===----------------------------------------------------------------------===//
-//
-// Copyright (c) Microsoft Corporation.
-// Licensed under the MIT license.
-//
-//===----------------------------------------------------------------------===//
-
-#include "llvm/ADT/SmallVectorExtras.h"
-#include "llvm/ADT/TypeSwitch.h"
-#include "llvm/Support/Debug.h"
-#include "llvm/Support/FormatVariadic.h"
-#include "llvm/Support/MathExtras.h"
-
-#include "triton-shared/Conversion/TritonToLinalg/TritonToLinalg.h"
-
-#define DEBUG_TYPE "triton-to-linalg"
-#include "triton-shared/Conversion/TritonArithToLinalg/ConversionPatterns.hpp"
-
-using namespace mlir;
-using namespace triton;
-
-#define GEN_PASS_CLASSES
-#include "triton-shared/Conversion/TritonToLinalg/Passes.h.inc"
-
-void mlir::triton::populateTritonToLinalgCanonicalizationPatterns(
-    RewritePatternSet &patterns) {
-  patterns.add<MinMaxConverter<arith::CmpFOp>, MinMaxConverter<arith::CmpIOp>>(
-      patterns.getContext());
-}
-
-void mlir::triton::populateTritonToLinalgConversionPatterns(
-    TypeConverter &typeConverter, RewritePatternSet &patterns,
-    unsigned int launchGridRank) {
-  populateFunctionOpInterfaceTypeConversionPattern<triton::FuncOp>(
-      patterns, typeConverter);
-  populateFunctionOpInterfaceTypeConversionPattern<triton::CallOp>(
-      patterns, typeConverter);
-
-  patterns.add<MetaOpConverter>(patterns.getContext());
-  patterns.add<StoreConverter>(patterns.getContext());
-  patterns.add<LegacyAddPtrConverter>(patterns.getContext());
-  patterns.add<MakeTensorPtrConverter>(patterns.getContext());
-  patterns.add<AdvanceConverter>(patterns.getContext());
-  patterns.add<GetProgramIDConverter, GetNumProgramsConverter>(
-      patterns.getContext());
-  patterns.add<YieldConverter>(patterns.getContext());
-  patterns.add<LoadConverter>(patterns.getContext());
-  patterns.add<LoopConverter>(patterns.getContext());
-  patterns.add<BroadcastConverter>(patterns.getContext());
-  patterns.add<TransposeConverter>(patterns.getContext());
-  patterns.add<MakeRangeConverter>(patterns.getContext());
-  patterns.add<ExpandDimsConverter>(patterns.getContext());
-  patterns.add<BitcastConverter>(patterns.getContext());
-  patterns.add<CallConverter>(patterns.getContext());
-  patterns.add<MulHiUIOpConverter>(patterns.getContext());
-  patterns.add<PreciseSqrtConverter>(patterns.getContext());
-  patterns.add<PreciseDivConverter>(patterns.getContext());
-  patterns.add<CatConverter>(patterns.getContext());
-  patterns.add<SplitConverter>(patterns.getContext());
-  patterns.add<JoinConverter>(patterns.getContext());
-  patterns.add<FpToFpConverter>(patterns.getContext());
-  patterns.add<ClampConverter>(patterns.getContext());
-  patterns.add<AssertConverter>(patterns.getContext());
-  patterns.add<MatmulConverter>(patterns.getContext());
-  patterns.add<SplatConverter>(patterns.getContext());
-  patterns.add<UnsplatConverter>(patterns.getContext());
-  patterns.add<DenseConstantConverter>(patterns.getContext());
-  patterns.add<UnrealizedCastConverter>(patterns.getContext());
-  patterns.add<CumSumConverter>(patterns.getContext());
-  patterns.add<ReshapeConverter>(patterns.getContext());
-
-  populateExternElementwiseOpToMLIROps(patterns);
-
-  // Reduce converters
-  // Triton's reduce op is idential to linalg.reduce op, so we can clone
-  // `tt.reduce` body to `linalg.reduce`. Unfortunately, we still need to
-  // perform pattern matching to know what reduce ops we are dealing with
-  // so that we know how to initialize the initial reduce values correctly.
-  //
-  // We can do this in a generic way without pattern matching by always using
-  // the first elements along the reduction axis and perform the reduction on
-  // the remaining elements. However, this results in creatings sub-tensors that
-  // aren't always multiple of 2s, which are sub-optimal for certain hardwares.
-  patterns.add<ArgMinConverter>(patterns.getContext());
-  patterns.add<ArgMaxConverter>(patterns.getContext());
-  patterns.add<ReduceConverter>(patterns.getContext());
-
-  // Note: the ordering here matters!
-  // MetaOpConverter has PatternBenefit == 10 which should take precedence over
-  // these linalg patterns, but to be safe, add these patterns last so that they
-  // will be tried last. Incorrect ordering or having MetaOpConverter has lower
-  // PatternBenefit will result in element-wise meta ops being converted to
-  // linalg.generic ops.
-  linalg::populateElementwiseToLinalgConversionPatterns(patterns);
-}
diff --git a/lib/Conversion/TritonToLinalg/TritonToLinalgPass.cpp b/lib/Conversion/TritonToLinalg/TritonToLinalgPass.cpp
deleted file mode 100644
index 25b7db8..0000000
--- a/lib/Conversion/TritonToLinalg/TritonToLinalgPass.cpp
+++ /dev/null
@@ -1,229 +0,0 @@
-//===----------------------------------------------------------------------===//
-//
-// Copyright (c) Microsoft Corporation.
-// Licensed under the MIT license.
-//
-//===----------------------------------------------------------------------===//
-
-#include "triton-shared/Analysis/UseAnalysis.h"
-#include "triton-shared/Conversion/TritonToLinalg/TritonToLinalg.h"
-#include "triton-shared/Dialect/TritonTilingExt/IR/TritonTilingExtDialect.h"
-
-#include "triton/Dialect/Triton/IR/Dialect.h"
-
-#include "mlir/Dialect/Affine/IR/AffineOps.h"
-#include "mlir/Dialect/Bufferization/IR/Bufferization.h"
-#include "mlir/Dialect/Linalg/IR/Linalg.h"
-#include "mlir/Dialect/MemRef/IR/MemRef.h"
-#include "mlir/Pass/PassManager.h"
-#include "mlir/Transforms/GreedyPatternRewriteDriver.h"
-#include "mlir/Transforms/Passes.h"
-
-#include "llvm/Support/Debug.h"
-
-#define DEBUG_TYPE "triton-to-linalg"
-
-using namespace mlir;
-using namespace triton;
-
-#define GEN_PASS_CLASSES
-#include "triton-shared/Conversion/TritonToLinalg/Passes.h.inc"
-
-namespace {
-
-class TritonTypeConverter : public TypeConverter {
-public:
-  TritonTypeConverter() {
-    // The order of type conversion is important: later ones are tried earlier.
-    addConversion([](Type type) { return type; });
-    addConversion([](triton::PointerType ptrType) {
-      return UnrankedMemRefType::get(ptrType.getPointeeType(), 0);
-    });
-    addConversion([](TensorType tensorType) -> Type {
-      auto elemType = tensorType.getElementType();
-      if (auto ptrType = dyn_cast<triton::PointerType>(elemType)) {
-        elemType = ptrType.getPointeeType();
-      }
-      return MemRefType::get(tensorType.getShape(), elemType);
-    });
-  }
-};
-
-class TritonToLinalgPass : public TritonToLinalgBase<TritonToLinalgPass> {
-
-  static auto constexpr LAUNCH_GRID_RANK = getMaxEnumValForProgramIDDim() + 1;
-  static unsigned int constexpr TRITON_PROGRAM_INFO_ARG_COUNT =
-      LAUNCH_GRID_RANK * 2;
-
-  // Add additional I32 arguments to represent:
-  // - num_programs, 3 in total, one for each axis of the launch grid
-  // - program_id, 3 in total, one for each axis of the launch grid
-  static void addProgramInfo(triton::FuncOp func) {
-    OpBuilder b(func);
-
-    auto origFuncType = func.getFunctionType();
-    auto origInputTypes = origFuncType.getInputs();
-    SmallVector<Type> newInputTypes(origInputTypes);
-    newInputTypes.append(TRITON_PROGRAM_INFO_ARG_COUNT, b.getI32Type());
-
-    auto newFuncType =
-        b.getFunctionType(newInputTypes, origFuncType.getResults());
-
-    func.setFunctionType(newFuncType);
-
-    // Add empty attributes for each new argument if needed
-    if (func.getAllArgAttrs()) {
-      SmallVector<DictionaryAttr> newArgAttrs;
-      func.getAllArgAttrs(newArgAttrs);
-      newArgAttrs.append(TRITON_PROGRAM_INFO_ARG_COUNT, DictionaryAttr());
-      func.setAllArgAttrs(newArgAttrs);
-    }
-
-    // Add the corresponding arguments to function body
-    for (unsigned int i = 0; i < TRITON_PROGRAM_INFO_ARG_COUNT; i++) {
-      func.getBody().front().addArgument(b.getI32Type(), func.getLoc());
-    }
-  }
-
-public:
-  void getDependentDialects(DialectRegistry &registry) const override {
-    registry
-        .insert<func::FuncDialect, arith::ArithDialect, math::MathDialect,
-                linalg::LinalgDialect, affine::AffineDialect, scf::SCFDialect,
-                tensor::TensorDialect, bufferization::BufferizationDialect,
-                memref::MemRefDialect, ttx::TritonTilingExtDialect>();
-  }
-
-  void runOnOperation() override {
-    auto moduleOp = getOperation();
-
-    {
-      RewritePatternSet patterns(&getContext());
-      populateTritonToLinalgCanonicalizationPatterns(patterns);
-      if (failed(applyPatternsGreedily(moduleOp, std::move(patterns)))) {
-        signalPassFailure();
-      }
-    }
-
-    moduleOp.walk([this](triton::FuncOp op) {
-      if (failed(runUseAnalysis(op))) {
-        signalPassFailure();
-      }
-    });
-
-    RewritePatternSet patterns(&getContext());
-    ConversionTarget target(getContext());
-    TritonTypeConverter tritonTypeConverter;
-
-    target.addLegalDialect<
-        func::FuncDialect, arith::ArithDialect, math::MathDialect,
-        linalg::LinalgDialect, affine::AffineDialect, scf::SCFDialect,
-        cf::ControlFlowDialect, tensor::TensorDialect,
-        bufferization::BufferizationDialect, memref::MemRefDialect,
-        ttx::TritonTilingExtDialect>();
-
-    target.addLegalOp<ModuleOp>();
-
-    // Update function signature to use memrefs
-    target.addDynamicallyLegalOp<triton::FuncOp>([&](triton::FuncOp op) {
-      return tritonTypeConverter.isSignatureLegal(op.getFunctionType());
-    });
-
-    // Lower dense constant to linalg.fill
-    target.addDynamicallyLegalOp<arith::ConstantOp>([](arith::ConstantOp op) {
-      if (!isa<RankedTensorType>(op.getResult().getType())) {
-        return true;
-      }
-
-      if (auto denseAttr = dyn_cast<DenseElementsAttr>(op.getValue())) {
-        if (denseAttr.isSplat() &&
-            isa<FloatType, IntegerType>(denseAttr.getElementType())) {
-          return false;
-        }
-      }
-      return true;
-    });
-
-    target.addDynamicallyLegalOp<scf::ForOp, scf::YieldOp>([](Operation *op) {
-      return llvm::all_of(op->getOperandTypes(), [](Type t) {
-        if (isa<triton::PointerType>(t)) {
-          return false;
-        }
-        if (auto shapedType = dyn_cast<ShapedType>(t)) {
-          return shapedType.getElementType().isIntOrFloat();
-        }
-        assert(t.isIntOrIndexOrFloat());
-        return true;
-      });
-    });
-
-    target.addDynamicallyLegalDialect<arith::ArithDialect, math::MathDialect>(
-        [](Operation *op) {
-          if (op->hasAttr("MetaUse")) {
-            return false;
-          }
-
-          if (isa<arith::ConstantOp>(op)) {
-            return true;
-          }
-
-          bool operateOnTensors =
-              llvm::all_of(op->getOperandTypes(), [](Type type) {
-                return isa<RankedTensorType>(type);
-              });
-
-          return !operateOnTensors;
-        });
-
-    triton::populateTritonToLinalgConversionPatterns(
-        tritonTypeConverter, patterns, LAUNCH_GRID_RANK);
-
-    for (auto func : getOperation().getOps<triton::FuncOp>())
-      addProgramInfo(func);
-
-    if (failed(applyPartialConversion(moduleOp, target, std::move(patterns))))
-      signalPassFailure();
-
-    // Convert tt.func and tt.return into func's counterparts
-    moduleOp.walk([&](triton::FuncOp func) {
-      OpBuilder builder(func);
-
-      auto name = func.getName();
-      auto type = func.getFunctionType();
-
-      SmallVector<DictionaryAttr> argAttrs, resAttrs;
-      func.getAllArgAttrs(argAttrs);
-      func.getAllResultAttrs(resAttrs);
-
-      auto funcFunc = builder.create<func::FuncOp>(func.getLoc(), name, type);
-      funcFunc.setAllArgAttrs(argAttrs);
-      funcFunc.setAllResultAttrs(resAttrs);
-
-      auto &funcFuncBody = funcFunc.getBody();
-      auto &funcBody = func.getBody();
-
-      IRMapping map;
-      funcBody.cloneInto(&funcFuncBody, map);
-
-      for (Block &block : funcFuncBody.getBlocks()) {
-        auto term = block.getTerminator();
-        builder.setInsertionPoint(term);
-        builder.create<func::ReturnOp>(func.getLoc(), term->getOperands());
-        term->erase();
-      }
-      func.erase();
-    });
-
-    // Erase dead code and fold constants created during lowering
-    PassManager pm(&getContext(), moduleOp.getOperationName());
-    pm.addPass(createCanonicalizerPass());
-    if (failed(runPipeline(pm, getOperation()))) {
-      signalPassFailure();
-    }
-  }
-};
-} // namespace
-
-std::unique_ptr<OperationPass<ModuleOp>> triton::createTritonToLinalgPass() {
-  return std::make_unique<TritonToLinalgPass>();
-}
diff --git a/lib/Conversion/TritonToLinalgExperimental/CollapseShape.cpp b/lib/Conversion/TritonToLinalgExperimental/CollapseShape.cpp
index 95061ac..0130ede 100644
--- a/lib/Conversion/TritonToLinalgExperimental/CollapseShape.cpp
+++ b/lib/Conversion/TritonToLinalgExperimental/CollapseShape.cpp
@@ -83,8 +83,8 @@ struct CollapseFill : public OpRewritePattern<linalg::FillOp> {
     }
     auto elementType = resultType.getElementType();
 
-    auto output = rewriter.create<memref::CollapseShapeOp>(
-        loc,
+    auto output = memref::CollapseShapeOp::create(
+        rewriter, loc,
         MemRefType::get(llvm::ArrayRef<int64_t>{resultType.getNumElements()},
                         elementType),
         result, reassociationMap);
@@ -112,14 +112,15 @@ struct CollapseFill : public OpRewritePattern<linalg::FillOp> {
       reassociationMap[0].push_back(rewriter.getAffineDimExpr(i));
     }
 
-    auto init = rewriter.create<tensor::CollapseShapeOp>(
-        loc, RankedTensorType::get({resultType.getNumElements()}, elementType),
+    auto init = tensor::CollapseShapeOp::create(
+        rewriter, loc,
+        RankedTensorType::get({resultType.getNumElements()}, elementType),
         op.getOutputs()[0], reassociationMap);
     auto fillOp =
-        rewriter.create<linalg::FillOp>(loc, op.getInputs(), ValueRange{init});
+        linalg::FillOp::create(rewriter, loc, op.getInputs(), ValueRange{init});
 
-    auto expandOp = rewriter.create<tensor::ExpandShapeOp>(
-        loc, result.getType(), fillOp.getResult(0), reassociationMap);
+    auto expandOp = tensor::ExpandShapeOp::create(
+        rewriter, loc, result.getType(), fillOp.getResult(0), reassociationMap);
 
     rewriter.replaceOp(op, expandOp.getResult());
     return success();
@@ -224,8 +225,8 @@ struct CollapseTranspose : public OpRewritePattern<linalg::TransposeOp> {
 
     auto loc = op.getLoc();
     sourceType = RankedTensorType::get(collapseShapeInput, elementType);
-    source = rewriter.create<tensor::CollapseShapeOp>(loc, sourceType, source,
-                                                      reassociationMap);
+    source = tensor::CollapseShapeOp::create(rewriter, loc, sourceType, source,
+                                             reassociationMap);
 
     SmallVector<ReassociationExprs> reassociationMapRe(reassociationMap.size());
     int idx = 0;
@@ -235,12 +236,12 @@ struct CollapseTranspose : public OpRewritePattern<linalg::TransposeOp> {
       }
     }
 
-    Value transposeInit = rewriter.create<tensor::CollapseShapeOp>(
-        loc, RankedTensorType::get(transposedShape, elementType), op.getInit(),
-        reassociationMapRe);
+    Value transposeInit = tensor::CollapseShapeOp::create(
+        rewriter, loc, RankedTensorType::get(transposedShape, elementType),
+        op.getInit(), reassociationMapRe);
 
     Value transpose =
-        rewriter.create<linalg::TransposeOp>(loc, source, transposeInit, perm)
+        linalg::TransposeOp::create(rewriter, loc, source, transposeInit, perm)
             .getResults()[0];
 
     rewriter.replaceOpWithNewOp<tensor::ExpandShapeOp>(
@@ -337,8 +338,8 @@ struct CollapseBroadCast : public OpRewritePattern<linalg::GenericOp> {
 
     auto loc = op.getLoc();
     sourceType = RankedTensorType::get(collapseShapeInput, elementType);
-    input = rewriter.create<tensor::CollapseShapeOp>(loc, sourceType, input,
-                                                     reassociationMap);
+    input = tensor::CollapseShapeOp::create(rewriter, loc, sourceType, input,
+                                            reassociationMap);
     resultType = RankedTensorType::get(collapseShapeOutput, elementType);
     size_t resultRank = resultType.getRank();
 
@@ -351,13 +352,14 @@ struct CollapseBroadCast : public OpRewritePattern<linalg::GenericOp> {
 
     assert(op->getNumResults() == 1 && "code assumes single result!");
 
-    auto init = rewriter.create<tensor::CollapseShapeOp>(
-        loc, RankedTensorType::get(resultType.getShape(), elementType),
+    auto init = tensor::CollapseShapeOp::create(
+        rewriter, loc,
+        RankedTensorType::get(resultType.getShape(), elementType),
         op.getOutputs()[0], reassociationMap);
 
-    auto linalgOp = rewriter.create<linalg::GenericOp>(
-        loc, init->getResultTypes(), ValueRange{input}, ValueRange{init},
-        indexingMaps, getNParallelLoopsAttrs(resultRank));
+    auto linalgOp = linalg::GenericOp::create(
+        rewriter, loc, init->getResultTypes(), ValueRange{input},
+        ValueRange{init}, indexingMaps, getNParallelLoopsAttrs(resultRank));
     rewriter.cloneRegionBefore(op.getRegion(), linalgOp.getRegion(),
                                linalgOp.getRegion().begin());
     linalgOp->setAttr("broadcastDims",
@@ -453,8 +455,8 @@ struct CollapseReduce : public OpRewritePattern<linalg::ReduceOp> {
     auto elementType = inputType.getElementType();
     auto loc = op.getLoc();
     auto newInputType = RankedTensorType::get(collapseShapeInput, elementType);
-    input = rewriter.create<tensor::CollapseShapeOp>(loc, newInputType, input,
-                                                     reassociationMap);
+    input = tensor::CollapseShapeOp::create(rewriter, loc, newInputType, input,
+                                            reassociationMap);
 
     SmallVector<ReassociationExprs> reassociationMapOutput;
     int idx = 0;
@@ -469,12 +471,12 @@ struct CollapseReduce : public OpRewritePattern<linalg::ReduceOp> {
             rewriter.getAffineDimExpr(idx++));
       }
     }
-    auto init = rewriter.create<tensor::CollapseShapeOp>(
-        loc, RankedTensorType::get(collapseShapeOutput, elementType),
+    auto init = tensor::CollapseShapeOp::create(
+        rewriter, loc, RankedTensorType::get(collapseShapeOutput, elementType),
         op.getInits()[0], reassociationMapOutput);
-    auto newReduce = rewriter.create<linalg::ReduceOp>(
-        loc, init->getResultTypes(), ValueRange{input}, ValueRange{init},
-        newDims);
+    auto newReduce =
+        linalg::ReduceOp::create(rewriter, loc, init->getResultTypes(),
+                                 ValueRange{input}, ValueRange{init}, newDims);
     rewriter.cloneRegionBefore(op.getRegion(), newReduce.getRegion(),
                                newReduce.getRegion().begin());
 
diff --git a/lib/Conversion/TritonToLinalgExperimental/ReconcilePtrCastsPass.cpp b/lib/Conversion/TritonToLinalgExperimental/ReconcilePtrCastsPass.cpp
index e8a3b7f..0f7eda6 100644
--- a/lib/Conversion/TritonToLinalgExperimental/ReconcilePtrCastsPass.cpp
+++ b/lib/Conversion/TritonToLinalgExperimental/ReconcilePtrCastsPass.cpp
@@ -61,8 +61,8 @@ struct SimplifyUnrealizedCast
       }
 
       auto prevInput = unrealizedCast.getInputs().front();
-      auto newCast = rewriter.create<UnrealizedConversionCastOp>(
-          op->getLoc(), op->getResultTypes(), ValueRange{prevInput});
+      auto newCast = UnrealizedConversionCastOp::create(
+          rewriter, op->getLoc(), op->getResultTypes(), ValueRange{prevInput});
 
       rewriter.replaceOp(op, newCast);
       return success();
@@ -90,11 +90,11 @@ struct FromMemrefConverter
…
-// CHECK:           ^bb0(%[[VAL_41:.*]]: i32, %[[VAL_42:.*]]: i32, %[[VAL_43:.*]]: i32):
-// CHECK:             %[[VAL_44:.*]] = arith.addi %[[VAL_41]], %[[VAL_42]] : i32
-// CHECK:             linalg.yield %[[VAL_44]] : i32
-// CHECK:           } -> tensor<256x128xi32>
-// CHECK:           %[[VAL_45:.*]] = memref.reinterpret_cast %[[VAL_1]] to offset: {{\[}}6656], sizes: [256, 128], strides: [1, %[[VAL_6]]] : memref<*xbf16> to memref<256x128xbf16, strided<[1, ?], offset: 6656>>
-// CHECK:           %[[VAL_46:.*]] = memref.alloc() : memref<256x128xbf16>
-// CHECK:           memref.copy %[[VAL_45]], %[[VAL_46]] : memref<256x128xbf16, strided<[1, ?], offset: 6656>> to memref<256x128xbf16>
-// CHECK:           %[[VAL_47:.*]] = bufferization.to_tensor %[[VAL_46]] restrict writable : memref<256x128xbf16>
-// CHECK:           bufferization.materialize_in_destination %[[VAL_47]] in writable %[[VAL_45]]
-// CHECK:           %[[VAL_48:.*]] = tensor.empty() : tensor<256x128xbf16>
-// CHECK:           %[[VAL_49:.*]] = linalg.generic {indexing_maps = [#map2, #map2], iterator_types = ["parallel", "parallel"]} ins(%[[VAL_50:.*]] : tensor<256x128xi32>) outs(%[[VAL_48]] : tensor<256x128xbf16>) {
-// CHECK:           ^bb0(%[[VAL_51:.*]]: i32, %[[VAL_52:.*]]: bf16):
-// CHECK:             %[[VAL_53:.*]] = arith.sitofp %[[VAL_51]] : i32 to bf16
-// CHECK:             linalg.yield %[[VAL_53]] : bf16
-// CHECK:           } -> tensor<256x128xbf16>
-// CHECK:           bufferization.materialize_in_destination %[[VAL_54:.*]] in writable %[[VAL_45]]
-// CHECK:           return
-// CHECK:         }
diff --git a/test/Conversion/TritonToLinalg/use_mid_chain.mlir b/test/Conversion/TritonToLinalg/use_mid_chain.mlir
deleted file mode 100644
index f4a855a..0000000
--- a/test/Conversion/TritonToLinalg/use_mid_chain.mlir
+++ /dev/null
@@ -1,64 +0,0 @@
-// RUN: triton-shared-opt --triton-to-linalg %s | FileCheck %s
-module {
-  tt.func @kernel(
-  %arg0 : !tt.ptr<bf16>,
-  %arg1 : !tt.ptr<bf16>,
-  %arg2 : !tt.ptr<i32>
-  )
-  {
-  %0 = tt.make_range {end = 768 : i32, start = 512 : i32}:tensor<256xi32>
-  // offset = [512] size = 256, stride = 1
-  %1 = tt.expand_dims %0 {axis = 1 : i32} : tensor<256xi32> -> tensor<256x1xi32>
-  // offset = [512,0], size = [256,1], stride = [1,0]
-  %2 = tt.broadcast %1 : tensor<256x1xi32> -> tensor<256x128xi32>
-  // offset = [512,0], size = [256,128], stride = [1,0]
-  // mixed use
-  %5 = tt.make_range {end = 1152 : i32, start = 1024 : i32}:tensor<128xi32>
-  // offset = 1024, size = 128, stride = 1
-  %6 = tt.expand_dims %5 {axis = 0 : i32} : tensor<128xi32> -> tensor<1x128xi32>
-  // offset = [0,1024], size = [1,128], stride = [0,1]
-  %7 = tt.broadcast %6 : tensor<1x128xi32> -> tensor<256x128xi32>
-  // offset = [0,1024], size = [256,128], stride = [0,1]
-  %c6 = arith.constant 6 : i32
-  %splat6 = tt.splat %c6 : i32 -> tensor<256x128xi32>
-  %scale7 = arith.muli %7, %splat6 : tensor<256x128xi32>
-  // offset = [0,6144], size = [256,128], stride = [0,6]
-  %14 = arith.addi %2, %scale7 : tensor<256x128xi32>
-  // offset = [512,6144], size = [256,128], stride = [1,6]
-  %17 = tt.splat %arg1 : !tt.ptr<bf16> -> tensor<256x128x!tt.ptr<bf16>>
-  %18 = tt.addptr %17, %14 : tensor<256x128x!tt.ptr<bf16>>, tensor<256x128xi32>
-  %19 = tt.load %18 : tensor<256x128x!tt.ptr<bf16>>
-  tt.store %18, %19 : tensor<256x128x!tt.ptr<bf16>>
-  %20 = tt.splat %arg2 : !tt.ptr<i32> -> tensor<256x128x!tt.ptr<i32>>
-  %21 = tt.addptr %20, %14 : tensor<256x128x!tt.ptr<i32>>, tensor<256x128xi32>
-  tt.store %21, %2 : tensor<256x128x!tt.ptr<i32>>
-  tt.return
-  }
-}
-// CHECK-LABEL:   func.func @kernel(
-// CHECK-SAME:                      %[[VAL_0:.*]]: memref<*xbf16>, %[[VAL_1:.*]]: memref<*xbf16>, %[[VAL_2:.*]]: memref<*xi32>, %[[VAL_3:.*]]: i32, %[[VAL_4:.*]]: i32, %[[VAL_5:.*]]: i32) {
-// CHECK-DAG:           %[[VAL_7:.*]] = arith.constant 6 : index
-// CHECK-DAG:           %[[VAL_25:.*]] = arith.constant 512 : i32
-// CHECK:           %[[VAL_8:.*]] = tensor.empty() : tensor<256xi32>
-// CHECK:           %[[VAL_9:.*]] = linalg.generic {indexing_maps = [#map], iterator_types = ["parallel"]} outs(%[[VAL_8]] : tensor<256xi32>) {
-// CHECK:           ^bb0(%[[VAL_10:.*]]: i32):
-// CHECK:             %[[VAL_11:.*]] = linalg.index 0 : index
-// CHECK:             %[[VAL_12:.*]] = arith.index_cast %[[VAL_11]] : index to i32
-// CHECK:             %[[VAL_24:.*]] = arith.addi %[[VAL_12]], %[[VAL_25]] : i32
-// CHECK:             linalg.yield %[[VAL_24]] : i32
-// CHECK:           } -> tensor<256xi32>
-// CHECK:           %[[VAL_13:.*]] = tensor.expand_shape %[[VAL_14:.*]] {{\[\[}}0, 1]] output_shape [256, 1] : tensor<256xi32> into tensor<256x1xi32>
-// CHECK:           %[[VAL_15:.*]] = tensor.empty() : tensor<256x128xi32>
-// CHECK:           %[[VAL_16:.*]] = linalg.generic {indexing_maps = [#map1, #map2], iterator_types = ["parallel", "parallel"]} ins(%[[VAL_13]] : tensor<256x1xi32>) outs(%[[VAL_15]] : tensor<256x128xi32>) attrs =  {broadcastDims = array<i64: 1>} {
-// CHECK:           ^bb0(%[[VAL_17:.*]]: i32, %[[VAL_18:.*]]: i32):
-// CHECK:             linalg.yield %[[VAL_17]] : i32
-// CHECK:           } -> tensor<256x128xi32>
-// CHECK:           %[[VAL_19:.*]] = memref.reinterpret_cast %[[VAL_1]] to offset: {{\[}}6656], sizes: [256, 128], strides: [1, %[[VAL_7]]] : memref<*xbf16> to memref<256x128xbf16, strided<[1, ?], offset: 6656>>
-// CHECK:           %[[VAL_20:.*]] = memref.alloc() : memref<256x128xbf16>
-// CHECK:           memref.copy %[[VAL_19]], %[[VAL_20]] : memref<256x128xbf16, strided<[1, ?], offset: 6656>> to memref<256x128xbf16>
-// CHECK:           %[[VAL_21:.*]] = bufferization.to_tensor %[[VAL_20]] restrict writable : memref<256x128xbf16>
-// CHECK:           bufferization.materialize_in_destination %[[VAL_21]] in writable %[[VAL_19]]
-// CHECK:           %[[VAL_22:.*]] = memref.reinterpret_cast %[[VAL_2]] to offset: {{\[}}6656], sizes: [256, 128], strides: [1, %[[VAL_7]]] : memref<*xi32> to memref<256x128xi32, strided<[1, ?], offset: 6656>>
-// CHECK:           bufferization.materialize_in_destination %[[VAL_23:.*]] in writable %[[VAL_22]]
-// CHECK:           return
-// CHECK:         }
diff --git a/test/Conversion/TritonToLinalg/wraparound_side_by_side.mlir b/test/Conversion/TritonToLinalg/wraparound_side_by_side.mlir
deleted file mode 100644
index cb27d94..0000000
--- a/test/Conversion/TritonToLinalg/wraparound_side_by_side.mlir
+++ /dev/null
@@ -1,133 +0,0 @@
-// XFAIL: *
-// RUN: triton-shared-opt --triton-to-linalg %s | FileCheck %s
-
-module {
-  tt.func public @wrap_side_by_side_masked_loop_01234567(%arg0: !tt.ptr<f32>, %arg1: !tt.ptr<f32>, %arg2: i32, %arg3: i32, %arg4: i32, %arg5: i32, %arg6: i32, %arg7: i32) {
-    %cst = arith.constant dense<-9.900000e+01> : tensor<4x4xf32>
-    %c1_i32 = arith.constant 1 : i32
-    %c0_i32 = arith.constant 0 : i32
-    %c2_i32 = arith.constant 2 : i32
-    %cst_0 = arith.constant dense<2> : tensor<4x1xi32>
-    %cst_1 = arith.constant dense<6> : tensor<4xi32>
-    %cst_2 = arith.constant dense<2> : tensor<4xi32>
-    %c4_i32 = arith.constant 4 : i32
-    %0 = tt.make_range {end = 4 : i32, start = 0 : i32} : tensor<4xi32>
-    %1 = arith.addi %0, %cst_2 : tensor<4xi32>
-    %2 = arith.addi %0, %cst_1 : tensor<4xi32>
-    %3 = tt.splat %arg3 : i32 -> tensor<4xi32>
-    %4 = arith.remsi %2, %3 : tensor<4xi32>
-    %5 = tt.expand_dims %1 {axis = 1 : i32} : tensor<4xi32> -> tensor<4x1xi32>
-    %6 = tt.splat %arg4 : i32 -> tensor<4x1xi32>
-    %7 = arith.muli %5, %6 : tensor<4x1xi32>
-    %8 = tt.expand_dims %4 {axis = 0 : i32} : tensor<4xi32> -> tensor<1x4xi32>
-    %9 = tt.splat %arg5 : i32 -> tensor<1x4xi32>
-    %10 = arith.muli %8, %9 : tensor<1x4xi32>
-    %11 = tt.broadcast %7 : tensor<4x1xi32> -> tensor<4x4xi32>
-    %12 = tt.broadcast %10 : tensor<1x4xi32> -> tensor<4x4xi32>
-    %13 = arith.addi %11, %12 : tensor<4x4xi32>
-    %14 = tt.splat %arg0 : !tt.ptr<f32> -> tensor<4x4x!tt.ptr<f32>>
-    %15 = tt.addptr %14, %13 : tensor<4x4x!tt.ptr<f32>>, tensor<4x4xi32>
-    %16 = tt.expand_dims %0 {axis = 1 : i32} : tensor<4xi32> -> tensor<4x1xi32>
-    %17 = tt.splat %arg6 : i32 -> tensor<4x1xi32>
-    %18 = arith.muli %17, %16 : tensor<4x1xi32>
-    %19 = tt.splat %arg1 : !tt.ptr<f32> -> tensor<4x1x!tt.ptr<f32>>
-    %20 = tt.addptr %19, %18 : tensor<4x1x!tt.ptr<f32>>, tensor<4x1xi32>
-    %21 = tt.expand_dims %0 {axis = 0 : i32} : tensor<4xi32> -> tensor<1x4xi32>
-    %22 = tt.splat %arg7 : i32 -> tensor<1x4xi32>
-    %23 = arith.muli %22, %21 : tensor<1x4xi32>
-    %24 = tt.broadcast %20 : tensor<4x1x!tt.ptr<f32>> -> tensor<4x4x!tt.ptr<f32>>
-    %25 = tt.broadcast %23 : tensor<1x4xi32> -> tensor<4x4xi32>
-    %26 = tt.addptr %24, %25 : tensor<4x4x!tt.ptr<f32>>, tensor<4x4xi32>
-    %27 = arith.cmpi slt, %16, %cst_0 : tensor<4x1xi32>
-    %28 = tt.broadcast %27 : tensor<4x1xi1> -> tensor<4x4xi1>
-    %29 = arith.muli %arg4, %c4_i32 : i32
-    %30 = tt.splat %29 : i32 -> tensor<4x4xi32>
-    %31 = arith.muli %arg5, %c4_i32 : i32
-    %32 = tt.splat %31 : i32 -> tensor<4x4xi32>
-    %33:2 = scf.for %arg8 = %c0_i32 to %c2_i32 step %c1_i32 iter_args(%arg9 = %15, %arg10 = %26) -> (tensor<4x4x!tt.ptr<f32>>, tensor<4x4x!tt.ptr<f32>>)  : i32 {
-      %34 = tt.load %arg9, %28, %cst : tensor<4x4x!tt.ptr<f32>>
-      tt.store %arg10, %34 : tensor<4x4x!tt.ptr<f32>>
-      %35 = tt.addptr %arg9, %30 : tensor<4x4x!tt.ptr<f32>>, tensor<4x4xi32>
-      %36 = tt.addptr %arg10, %32 : tensor<4x4x!tt.ptr<f32>>, tensor<4x4xi32>
-      scf.yield %35, %36 : tensor<4x4x!tt.ptr<f32>>, tensor<4x4x!tt.ptr<f32>>
-    }
-    tt.return
-  }
-}
-
-// CHECK-LABEL:  func.func @wrap_side_by_side_masked_loop_01234567
-// CHECK-SAME:   ([[PARAM_0_:%.+]]: memref<*xf32>, [[PARAM_1_:%.+]]: memref<*xf32>, [[PARAM_2_:%.+]]: i32, [[PARAM_3_:%.+]]: i32, [[PARAM_4_:%.+]]: i32, [[PARAM_5_:%.+]]: i32, [[PARAM_6_:%.+]]: i32, [[PARAM_7_:%.+]]: i32, [[PARAM_8_:%.+]]: i32, [[PARAM_9_:%.+]]: i32, [[PARAM_10_:%.+]]: i32, [[PARAM_11_:%.+]]: i32, [[PARAM_12_:%.+]]: i32, [[PARAM_13_:%.+]]: i32) {
-// CHECK-DAG:       [[CST_1_:%.+]] = arith.constant 1 : index
-// CHECK-DAG:       [[CST_minus_9_dot_900000_:%.+]] = arith.constant -9.900000e+01 : f32
-// CHECK-DAG:       [[CST_0_:%.+]] = arith.constant 0 : index
-// CHECK-DAG:       [[CST_4_:%.+]] = arith.constant 4 : index
-// CHECK-DAG:       [[CST_6_:%.+]] = arith.constant 6 : index
-// CHECK-DAG:       [[CST_1_1_:%.+]] = arith.constant 1 : i32
-// CHECK-DAG:       [[CST_0_1_:%.+]] = arith.constant 0 : i32
-// CHECK-DAG:       [[CST_2_:%.+]] = arith.constant 2 : i32
-// CHECK-DAG:       [[CST_4_1_:%.+]] = arith.constant 4 : i32
-// CHECK-DAG:       [[CST_2_1_:%.+]] = arith.constant 2 : index
-// CHECK-DAG:       [[VAR_0_:%.+]] = arith.index_cast [[PARAM_4_]] : i32 to index
-// CHECK-NOT: separator of consecutive DAGs
-// CHECK-DAG:       [[VAR_1_:%.+]] = arith.muli [[VAR_0_]], [[CST_2_1_]] : index
-// CHECK-DAG:       [[VAR_2_:%.+]] = arith.index_cast [[PARAM_3_]] : i32 to index
-// CHECK-DAG:       [[VAR_3_:%.+]] = arith.index_cast [[PARAM_5_]] : i32 to index
-// CHECK:           [[VAR_4_:%.+]] = arith.muli [[VAR_3_]], [[CST_6_]] : index
-// CHECK:           [[VAR_5_:%.+]] = arith.addi [[VAR_1_]], [[VAR_4_]] : index
-// CHECK:           [[VAR_6_:%.+]] = arith.remsi [[VAR_5_]], [[VAR_2_]] : index
-// CHECK-DAG:       [[VAR_7_:%.+]] = arith.subi [[VAR_5_]], [[VAR_6_]] : index
-// CHECK-DAG:       [[VAR_8_:%.+]] = arith.addi [[VAR_6_]], [[CST_4_]] : index
-// CHECK:           [[VAR_9_:%.+]] = arith.minsi [[VAR_8_]], [[VAR_2_]] : index
-// CHECK:           [[VAR_10_:%.+]] = arith.subi [[VAR_9_]], [[VAR_6_]] : index
-// CHECK-DAG:       [[VAR_reinterpret_cast_:%.+]] = memref.reinterpret_cast [[PARAM_0_]] to offset: {{.}}[[VAR_5_]]{{.}}, sizes: {{.}}[[CST_4_]], [[VAR_10_]]{{.}}, strides: {{.}}[[VAR_0_]], [[VAR_3_]]{{.}} : memref<*xf32> to memref<4x?xf32, strided<[?, ?], offset: ?>>
-// CHECK-DAG:       [[VAR_11_:%.+]] = arith.subi [[CST_4_]], [[VAR_10_]] : index
-// CHECK-NOT: separator of consecutive DAGs
-// CHECK-DAG:       [[VAR_reinterpret_cast_0_:%.+]] = memref.reinterpret_cast [[PARAM_0_]] to offset: {{.}}[[VAR_7_]]{{.}}, sizes: {{.}}[[CST_4_]], [[VAR_11_]]{{.}}, strides: {{.}}[[VAR_0_]], [[VAR_3_]]{{.}} : memref<*xf32> to memref<4x?xf32, strided<[?, ?], offset: ?>>
-// CHECK-DAG:       [[VAR_12_:%.+]] = arith.index_cast [[PARAM_6_]] : i32 to index
-// CHECK-DAG:       [[VAR_13_:%.+]] = arith.index_cast [[PARAM_7_]] : i32 to index
-// CHECK-DAG:       [[VAR_14_:%.+]] = arith.muli [[PARAM_4_]], [[CST_4_1_]] : i32
-// CHECK-DAG:       [[VAR_15_:%.+]] = arith.muli [[PARAM_5_]], [[CST_4_1_]] : i32
-// CHECK-DAG:       [[VAR_16_:%.+]] = arith.index_cast [[PARAM_4_]] : i32 to index
-// CHECK-NOT: separator of consecutive DAGs
-// CHECK-DAG:       [[VAR_17_:%.+]] = arith.muli [[VAR_16_]], [[CST_2_1_]] : index
-// CHECK-DAG:       [[VAR_18_:%.+]] = arith.index_cast [[PARAM_3_]] : i32 to index
-// CHECK-DAG:       [[VAR_19_:%.+]] = arith.index_cast [[PARAM_5_]] : i32 to index
-// CHECK-NOT: separator of consecutive DAGs
-// CHECK-DAG:       [[VAR_20_:%.+]] = arith.muli [[VAR_19_]], [[CST_6_]] : index
-// CHECK-DAG:       [[VAR_reinterpret_cast_1_:%.+]] = memref.reinterpret_cast [[PARAM_1_]] to offset: {{.}}[[CST_0_]]{{.}}, sizes: [4, 4], strides: {{.}}[[VAR_12_]], [[VAR_13_]]{{.}} : memref<*xf32> to memref<4x4xf32, strided<[?, ?], offset: ?>>
-// CHECK-NOT: separator of consecutive DAGs
-// CHECK-DAG:       [[VAR_21_:%.+]]:6 = scf.for [[VAR_arg14_:%.+]] = [[CST_0_1_]] to [[CST_2_]] step [[CST_1_1_]] iter_args([[VAR_arg15_:%.+]] = [[VAR_reinterpret_cast_]], [[VAR_arg16_:%.+]] = [[VAR_reinterpret_cast_]]_1, [[VAR_arg17_:%.+]] = [[VAR_17_]], [[VAR_arg18_:%.+]] = [[CST_0_]], [[VAR_arg19_:%.+]] = [[CST_0_]], [[VAR_arg20_:%.+]] = [[VAR_reinterpret_cast_]]_0) -> (memref<4x?xf32, strided<[?, ?], offset: ?>>, memref<4x4xf32, strided<[?, ?], offset: ?>>, index, index, index, memref<4x?xf32, strided<[?, ?], offset: ?>>)  : i32 {
-// CHECK-DAG:         [[RES_:%.+]] = memref.alloc() : memref<4x4xf32>
-// CHECK:             linalg.fill ins([[CST_minus_9_dot_900000_]] : f32) outs([[RES_]] : memref<4x4xf32>)
-// CHECK:             [[VAR_dim_:%.+]] = memref.dim [[VAR_arg15_]], [[CST_1_]] : memref<4x?xf32, strided<[?, ?], offset: ?>>
-// CHECK:             [[VAR_22_:%.+]] = arith.minsi [[VAR_dim_]], [[CST_4_]] : index
-// CHECK-DAG:         [[VAR_23_:%.+]] = arith.subi [[CST_4_]], [[VAR_22_]] : index
-// CHECK-DAG:         [[VAR_subview_:%.+]] = memref.subview [[VAR_arg15_]][0, 0] [2, [[VAR_22_]]{{.}} [1, 1] : memref<4x?xf32, strided<[?, ?], offset: ?>> to memref<2x?xf32, strided<[?, ?], offset: ?>>
-// CHECK-NOT: separator of consecutive DAGs
-// CHECK-DAG:         [[VAR_subview_2_:%.+]] = memref.subview [[VAR_arg20_]][0, 0] [2, [[VAR_23_]]{{.}} [1, 1] : memref<4x?xf32, strided<[?, ?], offset: ?>> to memref<2x?xf32, strided<[?, ?], offset: ?>>
-// CHECK-DAG:         [[VAR_subview_3_:%.+]] = memref.subview [[RES_]][0, 0] [2, [[VAR_22_]]{{.}} [1, 1] : memref<4x4xf32> to memref<2x?xf32, strided<[4, 1]>>
-// CHECK-DAG:         [[VAR_subview_4_:%.+]] = memref.subview [[RES_]][0, [[VAR_22_]]{{.}} [2, [[VAR_23_]]{{.}} [1, 1] : memref<4x4xf32> to memref<2x?xf32, strided<[4, 1], offset: ?>>
-// CHECK:             memref.copy [[VAR_subview_]], [[VAR_subview_]]_3 : memref<2x?xf32, strided<[?, ?], offset: ?>> to memref<2x?xf32, strided<[4, 1]>>
-// CHECK:             memref.copy [[VAR_subview_2_]], [[VAR_subview_4_]] : memref<2x?xf32, strided<[?, ?], offset: ?>> to memref<2x?xf32, strided<[4, 1], offset: ?>>
-// CHECK:             [[VAR_24_:%.+]] = bufferization.to_tensor [[RES_]] restrict writable : memref<4x4xf32>
-// CHECK:             bufferization.materialize_in_destination [[VAR_24_]] in writable [[VAR_arg16_]]
-// CHECK:             [[VAR_25_:%.+]] = arith.index_cast [[VAR_14_]] : i32 to index
-// CHECK:             [[VAR_26_:%.+]] = arith.addi [[VAR_arg17_]], [[VAR_25_]] : index
-// CHECK:             [[VAR_27_:%.+]] = arith.addi [[VAR_26_]], [[VAR_20_]] : index
-// CHECK:             [[VAR_28_:%.+]] = arith.remsi [[VAR_27_]], [[VAR_18_]] : index
-// CHECK-DAG:         [[VAR_29_:%.+]] = arith.subi [[VAR_27_]], [[VAR_28_]] : index
-// CHECK-DAG:         [[VAR_30_:%.+]] = arith.addi [[VAR_28_]], [[CST_4_]] : index
-// CHECK:             [[VAR_31_:%.+]] = arith.minsi [[VAR_30_]], [[VAR_18_]] : index
-// CHECK:             [[VAR_32_:%.+]] = arith.subi [[VAR_31_]], [[VAR_28_]] : index
-// CHECK-DAG:         [[VAR_reinterpret_cast_5_:%.+]] = memref.reinterpret_cast [[PARAM_0_]] to offset: {{.}}[[VAR_27_]]{{.}}, sizes: {{.}}[[CST_4_]], [[VAR_32_]]{{.}}, strides: {{.}}[[VAR_16_]], [[VAR_19_]]{{.}} : memref<*xf32> to memref<4x?xf32, strided<[?, ?], offset: ?>>
-// CHECK-DAG:         [[VAR_33_:%.+]] = arith.subi [[CST_4_]], [[VAR_32_]] : index
-// CHECK-NOT: separator of consecutive DAGs
-// CHECK-DAG:         [[VAR_reinterpret_cast_6_:%.+]] = memref.reinterpret_cast [[PARAM_0_]] to offset: {{.}}[[VAR_29_]]{{.}}, sizes: {{.}}[[CST_4_]], [[VAR_33_]]{{.}}, strides: {{.}}[[VAR_16_]], [[VAR_19_]]{{.}} : memref<*xf32> to memref<4x?xf32, strided<[?, ?], offset: ?>>
-// CHECK-DAG:         [[VAR_34_:%.+]] = arith.index_cast [[VAR_15_]] : i32 to index
-// CHECK:             [[VAR_35_:%.+]] = arith.addi [[VAR_arg18_]], [[VAR_34_]] : index
-// CHECK:             [[VAR_36_:%.+]] = arith.addi [[VAR_35_]], [[VAR_arg19_]] : index
-// CHECK:             [[VAR_reinterpret_cast_7_:%.+]] = memref.reinterpret_cast [[PARAM_1_]] to offset: {{.}}[[VAR_36_]]{{.}}, sizes: [4, 4], strides: {{.}}[[VAR_12_]], [[VAR_13_]]{{.}} : memref<*xf32> to memref<4x4xf32, strided<[?, ?], offset: ?>>
-// CHECK:             scf.yield [[VAR_reinterpret_cast_5_]], [[VAR_reinterpret_cast_7_]], [[VAR_26_]], [[VAR_36_]], [[CST_0_]], [[VAR_reinterpret_cast_6_]] : memref<4x?xf32, strided<[?, ?], offset: ?>>, memref<4x4xf32, strided<[?, ?], offset: ?>>, index, index, index, memref<4x?xf32, strided<[?, ?], offset: ?>>
-// CHECK:           }
-// CHECK:           return
-// CHECK:         }
diff --git a/test/Conversion/TritonToLinalg/wraparound_stacked.mlir b/test/Conversion/TritonToLinalg/wraparound_stacked.mlir
deleted file mode 100644
index f0e8600..0000000
--- a/test/Conversion/TritonToLinalg/wraparound_stacked.mlir
+++ /dev/null
@@ -1,129 +0,0 @@
-// XFAIL: *
-// RUN: triton-shared-opt --triton-to-linalg %s | FileCheck %s
-
-module {
-  tt.func public @wrap_stacked_masked_loop_01234567(%arg0: !tt.ptr<f32>, %arg1: !tt.ptr<f32>, %arg2: i32, %arg3: i32, %arg4: i32, %arg5: i32, %arg6: i32, %arg7: i32) {
-    %cst = arith.constant dense<-9.900000e+01> : tensor<4x4xf32>
-    %c1_i32 = arith.constant 1 : i32
-    %c0_i32 = arith.constant 0 : i32
-    %c2_i32 = arith.constant 2 : i32
-    %cst_0 = arith.constant dense<3> : tensor<1x4xi32>
-    %cst_1 = arith.constant dense<3> : tensor<4xi32>
-    %cst_2 = arith.constant dense<2> : tensor<4xi32>
-    %c4_i32 = arith.constant 4 : i32
-    %0 = tt.make_range {end = 4 : i32, start = 0 : i32} : tensor<4xi32>
-    %1 = arith.addi %0, %cst_2 : tensor<4xi32>
-    %2 = tt.splat %arg2 : i32 -> tensor<4xi32>
-    %3 = arith.remsi %1, %2 : tensor<4xi32>
-    %4 = arith.addi %0, %cst_1 : tensor<4xi32>
-    %5 = tt.expand_dims %3 {axis = 1 : i32} : tensor<4xi32> -> tensor<4x1xi32>
-    %6 = tt.splat %arg4 : i32 -> tensor<4x1xi32>
-    %7 = arith.muli %5, %6 : tensor<4x1xi32>
-    %8 = tt.expand_dims %4 {axis = 0 : i32} : tensor<4xi32> -> tensor<1x4xi32>
-    %9 = tt.splat %arg5 : i32 -> tensor<1x4xi32>
-    %10 = arith.muli %8, %9 : tensor<1x4xi32>
-    %11 = tt.broadcast %7 : tensor<4x1xi32> -> tensor<4x4xi32>
-    %12 = tt.broadcast %10 : tensor<1x4xi32> -> tensor<4x4xi32>
-    %13 = arith.addi %11, %12 : tensor<4x4xi32>
-    %14 = tt.splat %arg0 : !tt.ptr<f32> -> tensor<4x4x!tt.ptr<f32>>
-    %15 = tt.addptr %14, %13 : tensor<4x4x!tt.ptr<f32>>, tensor<4x4xi32>
-    %16 = tt.expand_dims %0 {axis = 1 : i32} : tensor<4xi32> -> tensor<4x1xi32>
-    %17 = tt.splat %arg6 : i32 -> tensor<4x1xi32>
-    %18 = arith.muli %17, %16 : tensor<4x1xi32>
-    %19 = tt.splat %arg1 : !tt.ptr<f32> -> tensor<4x1x!tt.ptr<f32>>
-    %20 = tt.addptr %19, %18 : tensor<4x1x!tt.ptr<f32>>, tensor<4x1xi32>
-    %21 = tt.expand_dims %0 {axis = 0 : i32} : tensor<4xi32> -> tensor<1x4xi32>
-    %22 = tt.splat %arg7 : i32 -> tensor<1x4xi32>
-    %23 = arith.muli %22, %21 : tensor<1x4xi32>
-    %24 = tt.broadcast %20 : tensor<4x1x!tt.ptr<f32>> -> tensor<4x4x!tt.ptr<f32>>
-    %25 = tt.broadcast %23 : tensor<1x4xi32> -> tensor<4x4xi32>
-    %26 = tt.addptr %24, %25 : tensor<4x4x!tt.ptr<f32>>, tensor<4x4xi32>
-    %27 = arith.cmpi slt, %21, %cst_0 : tensor<1x4xi32>
-    %28 = tt.broadcast %27 : tensor<1x4xi1> -> tensor<4x4xi1>
-    %29 = arith.muli %arg5, %c4_i32 : i32
-    %30 = tt.splat %29 : i32 -> tensor<4x4xi32>
-    %31:2 = scf.for %arg8 = %c0_i32 to %c2_i32 step %c1_i32 iter_args(%arg9 = %15, %arg10 = %26) -> (tensor<4x4x!tt.ptr<f32>>, tensor<4x4x!tt.ptr<f32>>)  : i32 {
-      %32 = tt.load %arg9, %28, %cst : tensor<4x4x!tt.ptr<f32>>
-      tt.store %arg10, %32 : tensor<4x4x!tt.ptr<f32>>
-      %33 = tt.addptr %arg9, %30 : tensor<4x4x!tt.ptr<f32>>, tensor<4x4xi32>
-      %34 = tt.addptr %arg10, %30 : tensor<4x4x!tt.ptr<f32>>, tensor<4x4xi32>
-      scf.yield %33, %34 : tensor<4x4x!tt.ptr<f32>>, tensor<4x4x!tt.ptr<f32>>
-    }
-    tt.return
-  }
-}
-
-// CHECK-LABEL:  func.func @wrap_stacked_masked_loop_01234567
-// CHECK-SAME:   ([[PARAM_0_:%.+]]: memref<*xf32>, [[PARAM_1_:%.+]]: memref<*xf32>, [[PARAM_2_:%.+]]: i32, [[PARAM_3_:%.+]]: i32, [[PARAM_4_:%.+]]: i32, [[PARAM_5_:%.+]]: i32, [[PARAM_6_:%.+]]: i32, [[PARAM_7_:%.+]]: i32, [[PARAM_8_:%.+]]: i32, [[PARAM_9_:%.+]]: i32, [[PARAM_10_:%.+]]: i32, [[PARAM_11_:%.+]]: i32, [[PARAM_12_:%.+]]: i32, [[PARAM_13_:%.+]]: i32) {
-// CHECK-DAG:       [[CST_minus_9_dot_900000_:%.+]] = arith.constant -9.900000e+01 : f32
-// CHECK-DAG:       [[CST_0_:%.+]] = arith.constant 0 : index
-// CHECK-DAG:       [[CST_4_:%.+]] = arith.constant 4 : index
-// CHECK-DAG:       [[CST_3_:%.+]] = arith.constant 3 : index
-// CHECK-DAG:       [[CST_2_:%.+]] = arith.constant 2 : index
-// CHECK-DAG:       [[CST_1_:%.+]] = arith.constant 1 : i32
-// CHECK-DAG:       [[CST_0_1_:%.+]] = arith.constant 0 : i32
-// CHECK-DAG:       [[CST_2_1_:%.+]] = arith.constant 2 : i32
-// CHECK-DAG:       [[CST_4_1_:%.+]] = arith.constant 4 : i32
-// CHECK-DAG:       [[VAR_0_:%.+]] = arith.index_cast [[PARAM_2_]] : i32 to index
-// CHECK-DAG:       [[VAR_1_:%.+]] = arith.index_cast [[PARAM_4_]] : i32 to index
-// CHECK-NOT: separator of consecutive DAGs
-// CHECK-DAG:       [[VAR_2_:%.+]] = arith.muli [[VAR_1_]], [[CST_2_]] : index
-// CHECK-DAG:       [[VAR_3_:%.+]] = arith.index_cast [[PARAM_5_]] : i32 to index
-// CHECK:           [[VAR_4_:%.+]] = arith.muli [[VAR_3_]], [[CST_3_]] : index
-// CHECK:           [[VAR_5_:%.+]] = arith.addi [[VAR_2_]], [[VAR_4_]] : index
-// CHECK-DAG:       [[VAR_6_:%.+]] = arith.remsi [[VAR_5_]], [[VAR_1_]] : index
-// CHECK-DAG:       [[VAR_7_:%.+]] = arith.muli [[VAR_0_]], [[VAR_1_]] : index
-// CHECK:           [[VAR_8_:%.+]] = arith.addi [[VAR_7_]], [[VAR_6_]] : index
-// CHECK:           [[VAR_9_:%.+]] = arith.subi [[VAR_8_]], [[VAR_5_]] : index
-// CHECK:           [[VAR_10_:%.+]] = arith.divsi [[VAR_9_]], [[VAR_1_]] : index
-// CHECK-DAG:       [[VAR_reinterpret_cast_:%.+]] = memref.reinterpret_cast [[PARAM_0_]] to offset: {{.}}[[VAR_5_]]{{.}}, sizes: {{.}}[[VAR_10_]], [[CST_4_]]{{.}}, strides: {{.}}[[VAR_1_]], [[VAR_3_]]{{.}} : memref<*xf32> to memref<?x4xf32, strided<[?, ?], offset: ?>>
-// CHECK-DAG:       [[VAR_11_:%.+]] = arith.subi [[CST_4_]], [[VAR_10_]] : index
-// CHECK-NOT: separator of consecutive DAGs
-// CHECK-DAG:       [[VAR_reinterpret_cast_0_:%.+]] = memref.reinterpret_cast [[PARAM_0_]] to offset: {{.}}[[VAR_6_]]{{.}}, sizes: {{.}}[[VAR_11_]], [[CST_4_]]{{.}}, strides: {{.}}[[VAR_1_]], [[VAR_3_]]{{.}} : memref<*xf32> to memref<?x4xf32, strided<[?, ?], offset: ?>>
-// CHECK-DAG:       [[VAR_12_:%.+]] = arith.index_cast [[PARAM_6_]] : i32 to index
-// CHECK-DAG:       [[VAR_13_:%.+]] = arith.index_cast [[PARAM_7_]] : i32 to index
-// CHECK-DAG:       [[VAR_14_:%.+]] = arith.muli [[PARAM_5_]], [[CST_4_1_]] : i32
-// CHECK-DAG:       [[VAR_15_:%.+]] = arith.index_cast [[PARAM_2_]] : i32 to index
-// CHECK-DAG:       [[VAR_16_:%.+]] = arith.index_cast [[PARAM_4_]] : i32 to index
-// CHECK-NOT: separator of consecutive DAGs
-// CHECK-DAG:       [[VAR_17_:%.+]] = arith.muli [[VAR_16_]], [[CST_2_]] : index
-// CHECK-DAG:       [[VAR_18_:%.+]] = arith.index_cast [[PARAM_5_]] : i32 to index
-// CHECK-NOT: separator of consecutive DAGs
-// CHECK-DAG:       [[VAR_19_:%.+]] = arith.muli [[VAR_18_]], [[CST_3_]] : index
-// CHECK-DAG:       [[VAR_reinterpret_cast_1_:%.+]] = memref.reinterpret_cast [[PARAM_1_]] to offset: {{.}}[[CST_0_]]{{.}}, sizes: [4, 4], strides: {{.}}[[VAR_12_]], [[VAR_13_]]{{.}} : memref<*xf32> to memref<4x4xf32, strided<[?, ?], offset: ?>>
-// CHECK-NOT: separator of consecutive DAGs
-// CHECK-DAG:       [[VAR_20_:%.+]]:6 = scf.for [[VAR_arg14_:%.+]] = [[CST_0_1_]] to [[CST_2_1_]] step [[CST_1_]] iter_args([[VAR_arg15_:%.+]] = [[VAR_reinterpret_cast_]], [[VAR_arg16_:%.+]] = [[VAR_reinterpret_cast_]]_1, [[VAR_arg17_:%.+]] = [[VAR_17_]], [[VAR_arg18_:%.+]] = [[CST_0_]], [[VAR_arg19_:%.+]] = [[CST_0_]], [[VAR_arg20_:%.+]] = [[VAR_reinterpret_cast_]]_0) -> (memref<?x4xf32, strided<[?, ?], offset: ?>>, memref<4x4xf32, strided<[?, ?], offset: ?>>, index, index, index, memref<?x4xf32, strided<[?, ?], offset: ?>>)  : i32 {
-// CHECK-DAG:         [[RES_:%.+]] = memref.alloc() : memref<4x4xf32>
-// CHECK:             linalg.fill ins([[CST_minus_9_dot_900000_]] : f32) outs([[RES_]] : memref<4x4xf32>)
-// CHECK:             [[VAR_dim_:%.+]] = memref.dim [[VAR_arg15_]], [[CST_0_]] : memref<?x4xf32, strided<[?, ?], offset: ?>>
-// CHECK:             [[VAR_21_:%.+]] = arith.minsi [[VAR_dim_]], [[CST_4_]] : index
-// CHECK-DAG:         [[VAR_22_:%.+]] = arith.subi [[CST_4_]], [[VAR_21_]] : index
-// CHECK-DAG:         [[VAR_subview_:%.+]] = memref.subview [[VAR_arg15_]][0, 0] {{.}}[[VAR_21_]], 3] [1, 1] : memref<?x4xf32, strided<[?, ?], offset: ?>> to memref<?x3xf32, strided<[?, ?], offset: ?>>
-// CHECK-NOT: separator of consecutive DAGs
-// CHECK-DAG:         [[VAR_subview_2_:%.+]] = memref.subview [[VAR_arg20_]][0, 0] {{.}}[[VAR_22_]], 3] [1, 1] : memref<?x4xf32, strided<[?, ?], offset: ?>> to memref<?x3xf32, strided<[?, ?], offset: ?>>
-// CHECK-DAG:         [[VAR_subview_3_:%.+]] = memref.subview [[RES_]][0, 0] {{.}}[[VAR_21_]], 3] [1, 1] : memref<4x4xf32> to memref<?x3xf32, strided<[4, 1]>>
-// CHECK-DAG:         [[VAR_subview_4_:%.+]] = memref.subview [[RES_]]{{.}}[[VAR_21_]], 0] {{.}}[[VAR_22_]], 3] [1, 1] : memref<4x4xf32> to memref<?x3xf32, strided<[4, 1], offset: ?>>
-// CHECK:             memref.copy [[VAR_subview_]], [[VAR_subview_]]_3 : memref<?x3xf32, strided<[?, ?], offset: ?>> to memref<?x3xf32, strided<[4, 1]>>
-// CHECK:             memref.copy [[VAR_subview_2_]], [[VAR_subview_4_]] : memref<?x3xf32, strided<[?, ?], offset: ?>> to memref<?x3xf32, strided<[4, 1], offset: ?>>
-// CHECK:             [[VAR_23_:%.+]] = bufferization.to_tensor [[RES_]] restrict writable : memref<4x4xf32>
-// CHECK:             bufferization.materialize_in_destination [[VAR_23_]] in writable [[VAR_arg16_]]
-// CHECK:             [[VAR_24_:%.+]] = arith.index_cast [[VAR_14_]] : i32 to index
-// CHECK:             [[VAR_25_:%.+]] = arith.addi [[VAR_arg17_]], [[VAR_24_]] : index
-// CHECK:             [[VAR_26_:%.+]] = arith.addi [[VAR_25_]], [[VAR_19_]] : index
-// CHECK-DAG:         [[VAR_27_:%.+]] = arith.remsi [[VAR_26_]], [[VAR_16_]] : index
-// CHECK-DAG:         [[VAR_28_:%.+]] = arith.muli [[VAR_15_]], [[VAR_16_]] : index
-// CHECK:             [[VAR_29_:%.+]] = arith.addi [[VAR_28_]], [[VAR_27_]] : index
-// CHECK:             [[VAR_30_:%.+]] = arith.subi [[VAR_29_]], [[VAR_26_]] : index
-// CHECK:             [[VAR_31_:%.+]] = arith.divsi [[VAR_30_]], [[VAR_16_]] : index
-// CHECK-DAG:         [[VAR_reinterpret_cast_5_:%.+]] = memref.reinterpret_cast [[PARAM_0_]] to offset: {{.}}[[VAR_26_]]{{.}}, sizes: {{.}}[[VAR_31_]], [[CST_4_]]{{.}}, strides: {{.}}[[VAR_16_]], [[VAR_18_]]{{.}} : memref<*xf32> to memref<?x4xf32, strided<[?, ?], offset: ?>>
-// CHECK-DAG:         [[VAR_32_:%.+]] = arith.subi [[CST_4_]], [[VAR_31_]] : index
-// CHECK-NOT: separator of consecutive DAGs
-// CHECK-DAG:         [[VAR_reinterpret_cast_6_:%.+]] = memref.reinterpret_cast [[PARAM_0_]] to offset: {{.}}[[VAR_27_]]{{.}}, sizes: {{.}}[[VAR_32_]], [[CST_4_]]{{.}}, strides: {{.}}[[VAR_16_]], [[VAR_18_]]{{.}} : memref<*xf32> to memref<?x4xf32, strided<[?, ?], offset: ?>>
-// CHECK-DAG:         [[VAR_33_:%.+]] = arith.index_cast [[VAR_14_]] : i32 to index
-// CHECK:             [[VAR_34_:%.+]] = arith.addi [[VAR_arg18_]], [[VAR_33_]] : index
-// CHECK:             [[VAR_35_:%.+]] = arith.addi [[VAR_34_]], [[VAR_arg19_]] : index
-// CHECK:             [[VAR_reinterpret_cast_7_:%.+]] = memref.reinterpret_cast [[PARAM_1_]] to offset: {{.}}[[VAR_35_]]{{.}}, sizes: [4, 4], strides: {{.}}[[VAR_12_]], [[VAR_13_]]{{.}} : memref<*xf32> to memref<4x4xf32, strided<[?, ?], offset: ?>>
-// CHECK:             scf.yield [[VAR_reinterpret_cast_5_]], [[VAR_reinterpret_cast_7_]], [[VAR_25_]], [[VAR_35_]], [[CST_0_]], [[VAR_reinterpret_cast_6_]] : memref<?x4xf32, strided<[?, ?], offset: ?>>, memref<4x4xf32, strided<[?, ?], offset: ?>>, index, index, index, memref<?x4xf32, strided<[?, ?], offset: ?>>
-// CHECK:           }
-// CHECK:           return
-// CHECK:         }
diff --git a/test/Conversion/TritonToLinalg/wraparound_unsupported_add_offset.mlir b/test/Conversion/TritonToLinalg/wraparound_unsupported_add_offset.mlir
deleted file mode 100644
index 9455f1e..0000000
--- a/test/Conversion/TritonToLinalg/wraparound_unsupported_add_offset.mlir
+++ /dev/null
@@ -1,57 +0,0 @@
-// RUN: triton-shared-opt --triton-to-linalg %s | FileCheck %s
-// XFAIL: *
-// We currently do not support this kind of modulo pattern:
-// (a + arrange(0, K)) % M
-module {
-  tt.func public @wrap_side_by_side_masked_loop_01234567(%arg0: !tt.ptr<f32>, %arg1: !tt.ptr<f32>, %arg2: i32, %arg3: i32, %arg4: i32, %arg5: i32, %arg6: i32, %arg7: i32) {
-    %cst = arith.constant dense<-9.900000e+01> : tensor<4x4xf32>
-    %c1_i32 = arith.constant 1 : i32
-    %c0_i32 = arith.constant 0 : i32
-    %c2_i32 = arith.constant 2 : i32
-    %cst_0 = arith.constant dense<2> : tensor<4x1xi32>
-    %cst_1 = arith.constant dense<6> : tensor<4xi32>
-    %cst_2 = arith.constant dense<2> : tensor<4xi32>
-    %c4_i32 = arith.constant 4 : i32
-    %0 = tt.make_range {end = 4 : i32, start = 0 : i32} : tensor<4xi32>
-    %1 = arith.addi %0, %cst_2 : tensor<4xi32>
-    %2 = tt.splat %arg3 : i32 -> tensor<4xi32>
-    %3 = arith.remsi %0, %2 : tensor<4xi32>
-    %4 = arith.addi %3, %cst_1 : tensor<4xi32>
-    %5 = tt.expand_dims %1 {axis = 1 : i32} : tensor<4xi32> -> tensor<4x1xi32>
-    %6 = tt.splat %arg4 : i32 -> tensor<4x1xi32>
-    %7 = arith.muli %5, %6 : tensor<4x1xi32>
-    %8 = tt.expand_dims %4 {axis = 0 : i32} : tensor<4xi32> -> tensor<1x4xi32>
-    %9 = tt.splat %arg5 : i32 -> tensor<1x4xi32>
-    %10 = arith.muli %8, %9 : tensor<1x4xi32>
-    %11 = tt.broadcast %7 : tensor<4x1xi32> -> tensor<4x4xi32>
-    %12 = tt.broadcast %10 : tensor<1x4xi32> -> tensor<4x4xi32>
-    %13 = arith.addi %11, %12 : tensor<4x4xi32>
-    %14 = tt.splat %arg0 : !tt.ptr<f32> -> tensor<4x4x!tt.ptr<f32>>
-    %15 = tt.addptr %14, %13 : tensor<4x4x!tt.ptr<f32>>, tensor<4x4xi32>
-    %16 = tt.expand_dims %0 {axis = 1 : i32} : tensor<4xi32> -> tensor<4x1xi32>
-    %17 = tt.splat %arg6 : i32 -> tensor<4x1xi32>
-    %18 = arith.muli %17, %16 : tensor<4x1xi32>
-    %19 = tt.splat %arg1 : !tt.ptr<f32> -> tensor<4x1x!tt.ptr<f32>>
-    %20 = tt.addptr %19, %18 : tensor<4x1x!tt.ptr<f32>>, tensor<4x1xi32>
-    %21 = tt.expand_dims %0 {axis = 0 : i32} : tensor<4xi32> -> tensor<1x4xi32>
-    %22 = tt.splat %arg7 : i32 -> tensor<1x4xi32>
-    %23 = arith.muli %22, %21 : tensor<1x4xi32>
-    %24 = tt.broadcast %20 : tensor<4x1x!tt.ptr<f32>> -> tensor<4x4x!tt.ptr<f32>>
-    %25 = tt.broadcast %23 : tensor<1x4xi32> -> tensor<4x4xi32>
-    %26 = tt.addptr %24, %25 : tensor<4x4x!tt.ptr<f32>>, tensor<4x4xi32>
-    %27 = arith.cmpi slt, %16, %cst_0 : tensor<4x1xi32>
-    %28 = tt.broadcast %27 : tensor<4x1xi1> -> tensor<4x4xi1>
-    %29 = arith.muli %arg4, %c4_i32 : i32
-    %30 = tt.splat %29 : i32 -> tensor<4x4xi32>
-    %31 = arith.muli %arg5, %c4_i32 : i32
-    %32 = tt.splat %31 : i32 -> tensor<4x4xi32>
-    %33:2 = scf.for %arg8 = %c0_i32 to %c2_i32 step %c1_i32 iter_args(%arg9 = %15, %arg10 = %26) -> (tensor<4x4x!tt.ptr<f32>>, tensor<4x4x!tt.ptr<f32>>)  : i32 {
-      %34 = tt.load %arg9, %28, %cst : tensor<4x4x!tt.ptr<f32>>
-      tt.store %arg10, %34 : tensor<4x4x!tt.ptr<f32>>
-      %35 = tt.addptr %arg9, %30 : tensor<4x4x!tt.ptr<f32>>, tensor<4x4xi32>
-      %36 = tt.addptr %arg10, %32 : tensor<4x4x!tt.ptr<f32>>, tensor<4x4xi32>
-      scf.yield %35, %36 : tensor<4x4x!tt.ptr<f32>>, tensor<4x4x!tt.ptr<f32>>
-    }
-    tt.return
-  }
-}
diff --git a/test/Conversion/TritonToLinalgExperimental/conditional_ptr_as_src.mlir b/test/Conversion/TritonToLinalgExperimental/conditional_ptr_as_src.mlir
index d8c015c..f413899 100644
--- a/test/Conversion/TritonToLinalgExperimental/conditional_ptr_as_src.mlir
+++ b/test/Conversion/TritonToLinalgExperimental/conditional_ptr_as_src.mlir
@@ -29,7 +29,6 @@ module {
 // CHECK-LABEL:  func.func @simple_cf_into_structured_load
 // CHECK-SAME:   ([[PARAM_0_:%.+]]: memref<*xf32>, [[PARAM_1_:%.+]]: memref<*xf32>, [[PARAM_2_:%.+]]: i32, [[PARAM_3_:%.+]]: i32, [[PARAM_4_:%.+]]: i32, [[PARAM_5_:%.+]]: i32, [[PARAM_6_:%.+]]: i32, [[PARAM_7_:%.+]]: i32, [[PARAM_8_:%.+]]: i32) {
 // CHECK-DAG:       [[VAR_0_:%.+]] = tptr.type_offset f32  : i32
-// CHECK-DAG:       [[CST_6_:%.+]] = arith.constant 6 : index
 // CHECK-DAG:       [[CST_2_:%.+]] = arith.constant 2 : i32
 // CHECK-DAG:       [[CST_1_:%.+]] = arith.constant 1 : i32
 // CHECK-DAG:       [[VAR_cast_:%.+]] = memref.cast [[PARAM_0_]] : memref<*xf32> to memref<1xf32>
@@ -48,9 +47,9 @@ module {
 // CHECK:             scf.yield [[VAR_7_1_]] : !ptr.ptr<#tptr.default_memory_space>
 // CHECK:           }
 // CHECK:           [[VAR_4_:%.+]] = tptr.to_memref [[VAR_3_]] : <#tptr.default_memory_space> to memref<1xf32>
-// CHECK-DAG:       [[VAR_reinterpret_cast_:%.+]] = memref.reinterpret_cast [[VAR_4_]] to offset: {{.}}[[CST_6_]]{{.}}, sizes: [4], strides: [1] : memref<1xf32> to memref<4xf32, strided<[1], offset: ?>>
+// CHECK-DAG:       [[VAR_reinterpret_cast_:%.+]] = memref.reinterpret_cast [[VAR_4_]] to offset: [6], sizes: [4], strides: [1] : memref<1xf32> to memref<4xf32, strided<[1], offset: 6>>
 // CHECK-DAG:       [[RES_:%.+]] = memref.alloc() : memref<4xf32>
-// CHECK:           memref.copy [[VAR_reinterpret_cast_]], [[RES_]] : memref<4xf32, strided<[1], offset: ?>> to memref<4xf32>
+// CHECK:           memref.copy [[VAR_reinterpret_cast_]], [[RES_]] : memref<4xf32, strided<[1], offset: 6>> to memref<4xf32>
 // CHECK-DAG:       [[VAR_5_:%.+]] = bufferization.to_tensor [[RES_]] restrict writable : memref<4xf32> to tensor<4xf32>
 // CHECK-DAG:       [[VAR_reinterpret_cast_0_:%.+]] = memref.reinterpret_cast [[PARAM_1_]] to offset: [0], sizes: [4], strides: [1] : memref<*xf32> to memref<4xf32, strided<[1]>>
 // CHECK:           bufferization.materialize_in_destination [[VAR_5_]] in writable [[VAR_reinterpret_cast_0_]] : (tensor<4xf32>, memref<4xf32, strided<[1]>>) -> ()
diff --git a/test/Conversion/TritonToLinalgExperimental/convert_unsplat.mlir b/test/Conversion/TritonToLinalgExperimental/convert_unsplat.mlir
index 9fd9cc5..d48ebeb 100644
--- a/test/Conversion/TritonToLinalgExperimental/convert_unsplat.mlir
+++ b/test/Conversion/TritonToLinalgExperimental/convert_unsplat.mlir
@@ -41,8 +41,8 @@ module {
 // CHECK:           } -> tensor<1xi1>
 // CHECK:           [[VAR_extracted_:%.+]] = tensor.extract [[VAR_6_]]{{.}}[[CST_0_1_]]{{.}} : tensor<1xi1>
 // CHECK:           scf.if [[VAR_extracted_]] {
-// CHECK:             [[VAR_reinterpret_cast_:%.+]] = memref.reinterpret_cast [[PARAM_0_]] to offset: {{.}}[[CST_0_1_]]{{.}}, sizes: [1], strides: [1] : memref<*xi32> to memref<1xi32, strided<[1], offset: ?>>
-// CHECK:             affine.store [[CST_42_]], [[VAR_reinterpret_cast_]][0] : memref<1xi32, strided<[1], offset: ?>>
+// CHECK:             [[VAR_reinterpret_cast_:%.+]] = memref.reinterpret_cast [[PARAM_0_]] to offset: [0], sizes: [1], strides: [1] : memref<*xi32> to memref<1xi32, strided<[1]>>
+// CHECK:             affine.store [[CST_42_]], [[VAR_reinterpret_cast_]][0] : memref<1xi32, strided<[1]>>
 // CHECK:           }
 // CHECK:           return
 // CHECK:         }
diff --git a/tools/triton-shared-opt/RegisterTritonSharedDialects.h b/tools/triton-shared-opt/RegisterTritonSharedDialects.h
index 6d92953..d78f96b 100644
--- a/tools/triton-shared-opt/RegisterTritonSharedDialects.h
+++ b/tools/triton-shared-opt/RegisterTritonSharedDialects.h
@@ -13,7 +13,6 @@
 #include "triton-shared/Conversion/StructuredToMemref/Passes.h"
 #include "triton-shared/Conversion/TritonArithToLinalg/Passes.h"
 #include "triton-shared/Conversion/TritonPtrToMemref/Passes.h"
-#include "triton-shared/Conversion/TritonToLinalg/Passes.h"
 #include "triton-shared/Conversion/TritonToLinalgExperimental/Passes.h"
 #include "triton-shared/Conversion/TritonToStructured/Passes.h"
 #include "triton-shared/Conversion/TritonToUnstructured/Passes.h"
@@ -29,7 +28,6 @@ inline void registerTritonSharedDialects(mlir::DialectRegistry &registry) {
   mlir::registerAllPasses();
   mlir::registerLinalgPasses();
   mlir::triton::registerTritonPasses();
-  mlir::triton::registerTritonToLinalgPass();
   mlir::triton::registerTritonToLinalgExperimentalPasses();
   mlir::triton::registerTritonToStructuredPass();
   mlir::triton::registerTritonPtrToMemref();
diff --git a/triton-hash.txt b/triton-hash.txt
index 80f8308..0f8b487 100644
--- a/triton-hash.txt
+++ b/triton-hash.txt
@@ -1 +1 @@
-e44bd1c83c1c3e8deac7c4f02683cfb3cc395c8b
+dbfbc1e1e6cca56eeaa853050b7962e7445f0a82
\ No newline at end of file
diff --git a/triton-san/README.md b/triton-san/README.md
index c5f8e3c..0647199 100644
--- a/triton-san/README.md
+++ b/triton-san/README.md
@@ -66,11 +66,15 @@ Usage: triton-san <sanitizer type> <original command used to launch the triton p
 Example: triton-san asan python ./my_triton_program.py
 ```
 
-**Note: before running TritonSan, please add the following import to the Triton program to specify the use of the CPU backend, which ensures all Triton kernels run on the CPU. The sanitizers require CPU backend in order to work.**
+**Note: before running TritonSan, please add the following import to the Triton program to specify the use of the CPU backend, which ensures all Triton kernels run on the CPU. The sanitizers require CPU backend in order to work. In addition, all desired GPU tensors in the Triton program need to be set to CPU**
 
 ```python
 from triton.backends.triton_shared.driver import CPUDriver
 triton.runtime.driver.set_active(CPUDriver())
+...
+
+#output = torch.empty((size, )).to("gpu")
+output = torch.empty((size, )).to("cpu")
 ```
 
 ## Example
diff --git a/triton-san/build.sh b/triton-san/build.sh
index 8691d2b..c0ded59 100755
--- a/triton-san/build.sh
+++ b/triton-san/build.sh
@@ -11,6 +11,7 @@ function check_required_files() {
 }
 
 PARENT_FOLDER="$(realpath "$(dirname "$0")")"
+TRITON_SHARED_PATH="$(realpath "${PARENT_FOLDER}/..")"
 ROOT="$(realpath "${PARENT_FOLDER}/../..")"
 SCRIPT_FOLDER="$(realpath "${PARENT_FOLDER}/script")"
 VENV_PATH="${ROOT}/venv"
@@ -23,9 +24,42 @@ TRITON_SAN_INSTALL_DIR="${ROOT}"
 # include utility functions
 source "${SCRIPT_FOLDER}/utility.inc"
 
+echo "================= Check out triton ================"
+TRITON_HASH_FILE="${TRITON_SHARED_PATH}/triton-hash.txt"
+if [ ! -e "${TRITON_HASH_FILE}" ]; then
+  print_error_and_exit "${TRITON_HASH_FILE} does not exist."
+fi
+
+EXPECT_HEAD_COMMIT=$(cat "${TRITON_HASH_FILE}")
+if [ -e "${TRITON_PATH}" ]; then
+  warning_msg=("The path ${TRITON_PATH} already exists.")
+  print_warning "${warning_msg[@]}"
+  pushd "${TRITON_PATH}" > /dev/null
+  HEAD_COMMIT=$(git rev-parse HEAD)
+  if [ "${HEAD_COMMIT}" != "${EXPECT_HEAD_COMMIT}" ]; then
+    error_msg=("The head commit of the existing Triton repository does not match the expected commit hash."
+               "HEAD: ${HEAD_COMMIT}, EXPECTED: ${EXPECT_HEAD_COMMIT}")
+    print_error_and_exit "${error_msg[@]}"
+  fi
+  EXIST_TRITON_BUILD="${TRITON_PATH}/build"
+  if [ -e "${EXIST_TRITON_BUILD}" ]; then
+    rm -rf "${TRITON_PATH}/build"
+    echo "Remove ${TRITON_PATH}/build"
+  fi
+  popd > /dev/null
+else
+  mkdir -p "${TRITON_PATH}"
+  git clone https://github.com/triton-lang/triton.git "${TRITON_PATH}"
+  pushd "${TRITON_PATH}" > /dev/null
+  cd "${TRITON_PATH}" && git checkout ${EXPECT_HEAD_COMMIT}
+  popd > /dev/null
+fi
+
+echo -e "\n\n\n"
+
 echo "================= Setup Python virtual environment ================"
 if [ ! -e "${VENV_PATH}" ]; then
-  "${SCRIPT_FOLDER}/setup_prerequisite.sh" "${VENV_PATH}"
+  "${SCRIPT_FOLDER}/setup_prerequisite.sh" "${TRITON_PATH}" "${VENV_PATH}" 
 else 
   required_file=(
     "${VENV_PATH}/bin/activate"
@@ -47,7 +81,7 @@ echo -e "\n\n\n"
 echo "=========================== Build LLVM ============================"
 if [ ! -e "${LLVM_PATH}" ]; then
   mkdir -p "${LLVM_PATH}"
-  "${SCRIPT_FOLDER}/build_llvm.sh" "${LLVM_PATH}"
+  "${SCRIPT_FOLDER}/build_llvm.sh" "${TRITON_PATH}" "${LLVM_PATH}"
 else
   required_file=(
     "${LLVM_PATH}/llvm-install/bin"
@@ -64,14 +98,9 @@ fi
 echo -e "\n\n\n"
 
 echo "================== Build trion-shared and triton =================="
-if [ -e "${TRITON_PATH}" ]; then
-  warning_msg=("The path ${TRITON_PATH} already exists and will be overwritten.")
-  print_warning "${warning_msg[@]}"
-  rm -rf "${TRITON_PATH}"
-fi
-mkdir -p "${TRITON_PATH}"
-"${SCRIPT_FOLDER}/build_triton_shared_with_triton_san.sh" "${LLVM_BUILD_PATH}" "${VENV_PATH}" "${TRITON_PATH}"
+export PATH="${LLVM_PATH}/llvm-install/bin:${PATH}"
+"${SCRIPT_FOLDER}/build_triton_shared_with_triton_san.sh" "${LLVM_BUILD_PATH}" "${VENV_PATH}" "${TRITON_PATH}" "${TRITON_SHARED_PATH}"
 echo -e "\n\n\n"
 
 echo "======================== Install triton-san ======================="
-"${SCRIPT_FOLDER}/install_triton_san.sh" "${TRITON_SAN_INSTALL_DIR}" "${LLVM_INSTALL_DIR}" "${VENV_PATH}" "${TRITON_PATH}"
\ No newline at end of file
+"${SCRIPT_FOLDER}/install_triton_san.sh" "${LLVM_INSTALL_DIR}" "${VENV_PATH}" "${TRITON_PATH}" "${TRITON_SAN_INSTALL_DIR}"
diff --git a/triton-san/script/build_llvm.sh b/triton-san/script/build_llvm.sh
index 497ebd9..c522b3b 100755
--- a/triton-san/script/build_llvm.sh
+++ b/triton-san/script/build_llvm.sh
@@ -6,13 +6,13 @@
 set -e
 
 if [ "$#" -lt 1 ]; then
-  echo "Usage: $0 <desired path for LLVM installation>"
+  echo "Usage: $0 <path to Triton source directory> <desired path for LLVM installation>"
   exit 1
 fi
 
 PARENT_FOLDER="$(realpath "$(dirname "$0")")"
-TRITON_SHARED_PATH="$(realpath "${PARENT_FOLDER}/../..")"
-LLVM_PATH="$(realpath "$1")"
+TRITON_PATH="$(realpath "$1")"
+LLVM_PATH="$(realpath "$2")"
 
 # include utility functions
 source "${PARENT_FOLDER}/utility.inc"
@@ -20,7 +20,7 @@ source "${PARENT_FOLDER}/utility.inc"
 print_info "Installing LLVM to path: ${LLVM_PATH}."
 cd $LLVM_PATH
 
-LLVM_HASH_FILE="${TRITON_SHARED_PATH}/triton/cmake/llvm-hash.txt"
+LLVM_HASH_FILE="${TRITON_PATH}/cmake/llvm-hash.txt"
 if [ ! -e "${LLVM_HASH_FILE}" ]; then
   print_error_and_exit "${LLVM_HASH_FILE} does not exist."
 fi
@@ -32,7 +32,7 @@ LLVM_SOURCE="${LLVM_SOURCE_DIR}/llvm"
 
 # compiler-rt and clang are the sanitizer-specific LLVM projects
 # openmp is used for parallelizing the triton grid for ThreadSanitizer (TSan)
-LLVM_PROJECTS="clang;compiler-rt;openmp;mlir"
+LLVM_PROJECTS="clang;compiler-rt;openmp;mlir;lld"
 
 # these are the targets supported by the Triton language
 # Triton's build script for LLVM uses these exact targets
@@ -49,6 +49,17 @@ LLVM_HASH=$(cat "${LLVM_HASH_FILE}")
 cd "${LLVM_SOURCE_DIR}"
 git checkout ${LLVM_HASH}
 
+# Cherry-pick the patch to resolve the OpenMP build error. An incorrect setting in openmp/runtime/src/CMakeLists.txt 
+# causes the generated omp-tools.h to be placed in Clang's include directory instead of OpenMP's, leading to a 
+# compilation failure when locating omp-tools.h.
+# More details are available at this link: https://github.com/llvm/llvm-project/commit/62ff9ac4c68f48c089528105259c68943ab176de
+
+# TODO: remove this once the LLVM hash for the next LLVM->Triton merge beyond this commit is confirmed.
+if ! git merge-base --is-ancestor 62ff9ac HEAD; then
+  echo "cherry pick commit 62ff9ac to avoid OpenMP build failure"
+  git cherry-pick 62ff9ac
+fi
+
 export CXXFLAGS="-Wno-unused-command-line-argument $CXXFLAGS" 
 export CFLAGS="-Wno-unused-command-line-argument $CFLAGS" 
 
@@ -64,4 +75,4 @@ cmake -GNinja -DCMAKE_BUILD_TYPE=Release        \
 ninja -j$(nproc --all) -l$(nproc --all) || exit -1
 ninja -j$(nproc --all) -l$(nproc --all) install
 
-print_info "LLVM installation succeeded."
\ No newline at end of file
+print_info "LLVM installation succeeded."
diff --git a/triton-san/script/build_triton_shared_with_triton_san.sh b/triton-san/script/build_triton_shared_with_triton_san.sh
index 54c36e3..b198a27 100755
--- a/triton-san/script/build_triton_shared_with_triton_san.sh
+++ b/triton-san/script/build_triton_shared_with_triton_san.sh
@@ -4,15 +4,15 @@
 set -e
 
 if [ "$#" -lt 3 ]; then
-  echo "Usage: $0 <path to LLVM build directory> <path to Python venv> <path to Triton source directory>"
+  echo "Usage: $0 <path to LLVM build directory> <path to Python venv> <path to Triton source directory> <path to triton-shared source directory>"
   exit 1
 fi
 
 PARENT_FOLDER="$(realpath "$(dirname "$0")")"
-TRITON_SHARED_PATH="$(realpath "${PARENT_FOLDER}/../..")"
 LLVM_BUILD_PATH="$(realpath "$1")"
 VENV_PATH="$(realpath "$2")"
 TRITON_PATH="$(realpath "$3")"
+TRITON_SHARED_PATH="$(realpath "$4")"
 
 # include utility functions
 source "${PARENT_FOLDER}/utility.inc"
@@ -46,15 +46,10 @@ fi
 mkdir -p "${TRITON_HOME}"
 
 # build triton-shared and triton with the custom LLVM
-TRITON_HASH_FILE="${TRITON_SHARED_PATH}/triton-hash.txt"
-if [ ! -e "${TRITON_HASH_FILE}" ]; then
-  print_error_and_exit "${TRITON_HASH_FILE} does not exist."
-fi
-
-git clone https://github.com/triton-lang/triton.git "${TRITON_PATH}"
-cd "${TRITON_PATH}" && git checkout $(cat "${TRITON_HASH_FILE}")
+pushd "${TRITON_PATH}" > /dev/null
 export TRITON_PLUGIN_DIRS="${TRITON_SHARED_PATH}"
 export LLVM_BUILD_DIR="${LLVM_BUILD_PATH}"
 LLVM_INCLUDE_DIRS="${LLVM_BUILD_DIR}/include" LLVM_LIBRARY_DIR="${LLVM_BUILD_DIR}/lib" LLVM_SYSPATH="${LLVM_BUILD_DIR}" TRITON_BUILD_WITH_CLANG_LLD=true TRITON_BUILD_WITH_CCACHE=false python3 -m pip install --no-build-isolation -vvv '.[tests]'
+popd > /dev/null
 
-print_info "triton-shared and triton build completed."
\ No newline at end of file
+print_info "triton-shared and triton build completed."
diff --git a/triton-san/script/install_triton_san.sh b/triton-san/script/install_triton_san.sh
index 88f9643..98cf32d 100755
--- a/triton-san/script/install_triton_san.sh
+++ b/triton-san/script/install_triton_san.sh
@@ -4,16 +4,16 @@
 set -e
 
 if [ "$#" -lt 4 ]; then
-  echo "Usage: $0 <desired path for triton-san installation> <path to LLVM install directory> <path to Python venv> <path to Triton source directory>"
+  echo "Usage: $0 <path to LLVM install directory> <path to Python venv> <path to Triton source directory> <desired path for triton-san installation>"
   exit 1
 fi
 
 PARENT_FOLDER="$(realpath "$(dirname "$0")")"
 TRITON_SAN_PATH="$(realpath "${PARENT_FOLDER}/..")"
-TRITON_SAN_INSTALL_DIR="$(realpath "$1")"
-LLVM_INSTALL_DIR="$(realpath "$2")"
-VENV_PATH="$(realpath "$3")"
-TRITON_PATH="$(realpath "$4")"
+LLVM_INSTALL_DIR="$(realpath "$1")"
+VENV_PATH="$(realpath "$2")"
+TRITON_PATH="$(realpath "$3")"
+TRITON_SAN_INSTALL_DIR="$(realpath "$4")"
 
 # include utility functions
 source "${PARENT_FOLDER}/utility.inc"
@@ -57,4 +57,4 @@ cp -r "${TRITON_SAN_PATH}/examples" "${TRITON_SAN_INSTALL_ROOT}/examples"
 info_message=("triton-san has been installed into ${TRITON_SAN_INSTALL_ROOT} successfully."
               "To optionally enable global access, add triton-san to your PATH environment variable using:"
               'export PATH="${PATH}:'"${TRITON_SAN_INSTALL_ROOT}\"")
-print_info "${info_message[@]}"
\ No newline at end of file
+print_info "${info_message[@]}"
diff --git a/triton-san/script/setup_prerequisite.sh b/triton-san/script/setup_prerequisite.sh
index 94e7cb0..56ce061 100755
--- a/triton-san/script/setup_prerequisite.sh
+++ b/triton-san/script/setup_prerequisite.sh
@@ -4,14 +4,14 @@
 set -e
 
 if [ "$#" -lt 1 ]; then
-  echo "Usage: $0 <desired path to venv>"
+  echo "Usage: $0 <path to Triton source directory> <desired path to venv>"
   exit 1
 fi
 
 PARENT_FOLDER="$(realpath "$(dirname "$0")")"
 TRITON_SHARED_PATH="$(realpath "${PARENT_FOLDER}/../..")"
-TRITON_PATH="${TRITON_SHARED_PATH}/triton"
-VENV_PATH="$(realpath "$1")"
+TRITON_PATH="$(realpath "$1")"
+VENV_PATH="$(realpath "$2")"
 
 # include utility functions
 source "${PARENT_FOLDER}/utility.inc"
@@ -36,4 +36,4 @@ python3 -m pip install pytest-xdist torch
 # echo to user to start virtual environment
 info_message=("Please start the virtual environment: source \"${VENV_PATH}/bin/activate\""
               "This export is recommended for subsequent triton-shared builds: export TRITON_PLUGIN_DIRS=\"${TRITON_SHARED_PATH}/triton_shared\"")
-print_info "${info_message[@]}"
\ No newline at end of file
+print_info "${info_message[@]}"
